----------------------------------------------------------------
        Layer (type)               Output Shape         Param #
================================================================
            Conv1d-1              [-1, 8, 1000]              48
            Conv1d-2              [-1, 8, 1000]              48
            Conv1d-3              [-1, 8, 1000]              48
            Conv1d-4              [-1, 8, 1000]              48
            Conv1d-5              [-1, 8, 1000]              48
            Conv1d-6              [-1, 1, 1000]               9
          RCNNCell-7  [[-1, 1, 1000], [-1, 1, 1000]]               0
            Conv1d-8              [-1, 8, 1000]              48
            Conv1d-9              [-1, 8, 1000]              48
           Conv1d-10              [-1, 8, 1000]              48
           Conv1d-11              [-1, 8, 1000]              48
           Conv1d-12              [-1, 8, 1000]              48
           Conv1d-13              [-1, 1, 1000]               9
         RCNNCell-14  [[-1, 1, 1000], [-1, 1, 1000]]               0
           Conv1d-15              [-1, 8, 1000]              48
           Conv1d-16              [-1, 8, 1000]              48
           Conv1d-17              [-1, 8, 1000]              48
           Conv1d-18              [-1, 8, 1000]              48
           Conv1d-19              [-1, 8, 1000]              48
           Conv1d-20              [-1, 1, 1000]               9
         RCNNCell-21  [[-1, 1, 1000], [-1, 1, 1000]]               0
           Conv1d-22              [-1, 8, 1000]              48
           Conv1d-23              [-1, 8, 1000]              48
           Conv1d-24              [-1, 8, 1000]              48
           Conv1d-25              [-1, 8, 1000]              48
           Conv1d-26              [-1, 8, 1000]              48
           Conv1d-27              [-1, 1, 1000]               9
         RCNNCell-28  [[-1, 1, 1000], [-1, 1, 1000]]               0
           Conv1d-29              [-1, 8, 1000]              48
           Conv1d-30              [-1, 8, 1000]              48
           Conv1d-31              [-1, 8, 1000]              48
           Conv1d-32              [-1, 8, 1000]              48
           Conv1d-33              [-1, 8, 1000]              48
           Conv1d-34              [-1, 1, 1000]               9
         RCNNCell-35  [[-1, 1, 1000], [-1, 1, 1000]]               0
           Conv1d-36              [-1, 8, 1000]              48
           Conv1d-37              [-1, 8, 1000]              48
           Conv1d-38              [-1, 8, 1000]              48
           Conv1d-39              [-1, 8, 1000]              48
           Conv1d-40              [-1, 8, 1000]              48
           Conv1d-41              [-1, 1, 1000]               9
         RCNNCell-42  [[-1, 1, 1000], [-1, 1, 1000]]               0
           Conv1d-43              [-1, 8, 1000]              48
           Conv1d-44              [-1, 8, 1000]              48
           Conv1d-45              [-1, 8, 1000]              48
           Conv1d-46              [-1, 8, 1000]              48
           Conv1d-47              [-1, 8, 1000]              48
           Conv1d-48              [-1, 1, 1000]               9
         RCNNCell-49  [[-1, 1, 1000], [-1, 1, 1000]]               0
           Conv1d-50              [-1, 8, 1000]              48
           Conv1d-51              [-1, 8, 1000]              48
           Conv1d-52              [-1, 8, 1000]              48
           Conv1d-53              [-1, 8, 1000]              48
           Conv1d-54              [-1, 8, 1000]              48
           Conv1d-55              [-1, 1, 1000]               9
         RCNNCell-56  [[-1, 1, 1000], [-1, 1, 1000]]               0
           Conv1d-57              [-1, 8, 1000]              48
           Conv1d-58              [-1, 8, 1000]              48
           Conv1d-59              [-1, 8, 1000]              48
           Conv1d-60              [-1, 8, 1000]              48
           Conv1d-61              [-1, 8, 1000]              48
           Conv1d-62              [-1, 1, 1000]               9
         RCNNCell-63  [[-1, 1, 1000], [-1, 1, 1000]]               0
           Conv1d-64              [-1, 8, 1000]              48
           Conv1d-65              [-1, 8, 1000]              48
           Conv1d-66              [-1, 8, 1000]              48
           Conv1d-67              [-1, 8, 1000]              48
           Conv1d-68              [-1, 8, 1000]              48
           Conv1d-69              [-1, 1, 1000]               9
         RCNNCell-70  [[-1, 1, 1000], [-1, 1, 1000]]               0
           Conv1d-71              [-1, 8, 1000]              48
           Conv1d-72              [-1, 8, 1000]              48
           Conv1d-73              [-1, 8, 1000]              48
           Conv1d-74              [-1, 8, 1000]              48
           Conv1d-75              [-1, 8, 1000]              48
           Conv1d-76              [-1, 1, 1000]               9
         RCNNCell-77  [[-1, 1, 1000], [-1, 1, 1000]]               0
           Conv1d-78              [-1, 8, 1000]              48
           Conv1d-79              [-1, 8, 1000]              48
           Conv1d-80              [-1, 8, 1000]              48
           Conv1d-81              [-1, 8, 1000]              48
           Conv1d-82              [-1, 8, 1000]              48
           Conv1d-83              [-1, 1, 1000]               9
         RCNNCell-84  [[-1, 1, 1000], [-1, 1, 1000]]               0
           Conv1d-85              [-1, 8, 1000]              48
           Conv1d-86              [-1, 8, 1000]              48
           Conv1d-87              [-1, 8, 1000]              48
           Conv1d-88              [-1, 8, 1000]              48
           Conv1d-89              [-1, 8, 1000]              48
           Conv1d-90              [-1, 1, 1000]               9
         RCNNCell-91  [[-1, 1, 1000], [-1, 1, 1000]]               0
           Conv1d-92              [-1, 8, 1000]              48
           Conv1d-93              [-1, 8, 1000]              48
           Conv1d-94              [-1, 8, 1000]              48
           Conv1d-95              [-1, 8, 1000]              48
           Conv1d-96              [-1, 8, 1000]              48
           Conv1d-97              [-1, 1, 1000]               9
         RCNNCell-98  [[-1, 1, 1000], [-1, 1, 1000]]               0
           Conv1d-99              [-1, 8, 1000]              48
          Conv1d-100              [-1, 8, 1000]              48
          Conv1d-101              [-1, 8, 1000]              48
          Conv1d-102              [-1, 8, 1000]              48
          Conv1d-103              [-1, 8, 1000]              48
          Conv1d-104              [-1, 1, 1000]               9
        RCNNCell-105  [[-1, 1, 1000], [-1, 1, 1000]]               0
          Conv1d-106              [-1, 8, 1000]              48
          Conv1d-107              [-1, 8, 1000]              48
          Conv1d-108              [-1, 8, 1000]              48
          Conv1d-109              [-1, 8, 1000]              48
          Conv1d-110              [-1, 8, 1000]              48
          Conv1d-111              [-1, 1, 1000]               9
        RCNNCell-112  [[-1, 1, 1000], [-1, 1, 1000]]               0
          Conv1d-113              [-1, 8, 1000]              48
          Conv1d-114              [-1, 8, 1000]              48
          Conv1d-115              [-1, 8, 1000]              48
          Conv1d-116              [-1, 8, 1000]              48
          Conv1d-117              [-1, 8, 1000]              48
          Conv1d-118              [-1, 1, 1000]               9
        RCNNCell-119  [[-1, 1, 1000], [-1, 1, 1000]]               0
          Conv1d-120              [-1, 8, 1000]              48
          Conv1d-121              [-1, 8, 1000]              48
          Conv1d-122              [-1, 8, 1000]              48
          Conv1d-123              [-1, 8, 1000]              48
          Conv1d-124              [-1, 8, 1000]              48
          Conv1d-125              [-1, 1, 1000]               9
        RCNNCell-126  [[-1, 1, 1000], [-1, 1, 1000]]               0
          Conv1d-127              [-1, 8, 1000]              48
          Conv1d-128              [-1, 8, 1000]              48
          Conv1d-129              [-1, 8, 1000]              48
          Conv1d-130              [-1, 8, 1000]              48
          Conv1d-131              [-1, 8, 1000]              48
          Conv1d-132              [-1, 1, 1000]               9
        RCNNCell-133  [[-1, 1, 1000], [-1, 1, 1000]]               0
          Conv1d-134              [-1, 8, 1000]              48
          Conv1d-135              [-1, 8, 1000]              48
          Conv1d-136              [-1, 8, 1000]              48
          Conv1d-137              [-1, 8, 1000]              48
          Conv1d-138              [-1, 8, 1000]              48
          Conv1d-139              [-1, 1, 1000]               9
        RCNNCell-140  [[-1, 1, 1000], [-1, 1, 1000]]               0
          Conv1d-141              [-1, 8, 1000]              48
          Conv1d-142              [-1, 8, 1000]              48
          Conv1d-143              [-1, 8, 1000]              48
          Conv1d-144              [-1, 8, 1000]              48
          Conv1d-145              [-1, 8, 1000]              48
          Conv1d-146              [-1, 1, 1000]               9
        RCNNCell-147  [[-1, 1, 1000], [-1, 1, 1000]]               0
          Conv1d-148              [-1, 8, 1000]              48
          Conv1d-149              [-1, 8, 1000]              48
          Conv1d-150              [-1, 8, 1000]              48
          Conv1d-151              [-1, 8, 1000]              48
          Conv1d-152              [-1, 8, 1000]              48
          Conv1d-153              [-1, 1, 1000]               9
        RCNNCell-154  [[-1, 1, 1000], [-1, 1, 1000]]               0
          Conv1d-155              [-1, 8, 1000]              48
          Conv1d-156              [-1, 8, 1000]              48
          Conv1d-157              [-1, 8, 1000]              48
          Conv1d-158              [-1, 8, 1000]              48
          Conv1d-159              [-1, 8, 1000]              48
          Conv1d-160              [-1, 1, 1000]               9
        RCNNCell-161  [[-1, 1, 1000], [-1, 1, 1000]]               0
          Conv1d-162              [-1, 8, 1000]              48
          Conv1d-163              [-1, 8, 1000]              48
          Conv1d-164              [-1, 8, 1000]              48
          Conv1d-165              [-1, 8, 1000]              48
          Conv1d-166              [-1, 8, 1000]              48
          Conv1d-167              [-1, 1, 1000]               9
        RCNNCell-168  [[-1, 1, 1000], [-1, 1, 1000]]               0
          Conv1d-169              [-1, 8, 1000]              48
          Conv1d-170              [-1, 8, 1000]              48
          Conv1d-171              [-1, 8, 1000]              48
          Conv1d-172              [-1, 8, 1000]              48
          Conv1d-173              [-1, 8, 1000]              48
          Conv1d-174              [-1, 1, 1000]               9
        RCNNCell-175  [[-1, 1, 1000], [-1, 1, 1000]]               0
          Conv1d-176              [-1, 8, 1000]              48
          Conv1d-177              [-1, 8, 1000]              48
          Conv1d-178              [-1, 8, 1000]              48
          Conv1d-179              [-1, 8, 1000]              48
          Conv1d-180              [-1, 8, 1000]              48
          Conv1d-181              [-1, 1, 1000]               9
        RCNNCell-182  [[-1, 1, 1000], [-1, 1, 1000]]               0
          Conv1d-183              [-1, 8, 1000]              48
          Conv1d-184              [-1, 8, 1000]              48
          Conv1d-185              [-1, 8, 1000]              48
          Conv1d-186              [-1, 8, 1000]              48
          Conv1d-187              [-1, 8, 1000]              48
          Conv1d-188              [-1, 1, 1000]               9
        RCNNCell-189  [[-1, 1, 1000], [-1, 1, 1000]]               0
          Conv1d-190              [-1, 8, 1000]              48
          Conv1d-191              [-1, 8, 1000]              48
          Conv1d-192              [-1, 8, 1000]              48
          Conv1d-193              [-1, 8, 1000]              48
          Conv1d-194              [-1, 8, 1000]              48
          Conv1d-195              [-1, 1, 1000]               9
        RCNNCell-196  [[-1, 1, 1000], [-1, 1, 1000]]               0
          Conv1d-197              [-1, 8, 1000]              48
          Conv1d-198              [-1, 8, 1000]              48
          Conv1d-199              [-1, 8, 1000]              48
          Conv1d-200              [-1, 8, 1000]              48
          Conv1d-201              [-1, 8, 1000]              48
          Conv1d-202              [-1, 1, 1000]               9
        RCNNCell-203  [[-1, 1, 1000], [-1, 1, 1000]]               0
          Conv1d-204              [-1, 8, 1000]              48
          Conv1d-205              [-1, 8, 1000]              48
          Conv1d-206              [-1, 8, 1000]              48
          Conv1d-207              [-1, 8, 1000]              48
          Conv1d-208              [-1, 8, 1000]              48
          Conv1d-209              [-1, 1, 1000]               9
        RCNNCell-210  [[-1, 1, 1000], [-1, 1, 1000]]               0
          Conv1d-211              [-1, 8, 1000]              48
          Conv1d-212              [-1, 8, 1000]              48
          Conv1d-213              [-1, 8, 1000]              48
          Conv1d-214              [-1, 8, 1000]              48
          Conv1d-215              [-1, 8, 1000]              48
          Conv1d-216              [-1, 1, 1000]               9
        RCNNCell-217  [[-1, 1, 1000], [-1, 1, 1000]]               0
          Conv1d-218              [-1, 8, 1000]              48
          Conv1d-219              [-1, 8, 1000]              48
          Conv1d-220              [-1, 8, 1000]              48
          Conv1d-221              [-1, 8, 1000]              48
          Conv1d-222              [-1, 8, 1000]              48
          Conv1d-223              [-1, 1, 1000]               9
        RCNNCell-224  [[-1, 1, 1000], [-1, 1, 1000]]               0
          Conv1d-225              [-1, 8, 1000]              48
          Conv1d-226              [-1, 8, 1000]              48
          Conv1d-227              [-1, 8, 1000]              48
          Conv1d-228              [-1, 8, 1000]              48
          Conv1d-229              [-1, 8, 1000]              48
          Conv1d-230              [-1, 1, 1000]               9
        RCNNCell-231  [[-1, 1, 1000], [-1, 1, 1000]]               0
          Conv1d-232              [-1, 8, 1000]              48
          Conv1d-233              [-1, 8, 1000]              48
          Conv1d-234              [-1, 8, 1000]              48
          Conv1d-235              [-1, 8, 1000]              48
          Conv1d-236              [-1, 8, 1000]              48
          Conv1d-237              [-1, 1, 1000]               9
        RCNNCell-238  [[-1, 1, 1000], [-1, 1, 1000]]               0
          Conv1d-239              [-1, 8, 1000]              48
          Conv1d-240              [-1, 8, 1000]              48
          Conv1d-241              [-1, 8, 1000]              48
          Conv1d-242              [-1, 8, 1000]              48
          Conv1d-243              [-1, 8, 1000]              48
          Conv1d-244              [-1, 1, 1000]               9
        RCNNCell-245  [[-1, 1, 1000], [-1, 1, 1000]]               0
          Conv1d-246              [-1, 8, 1000]              48
          Conv1d-247              [-1, 8, 1000]              48
          Conv1d-248              [-1, 8, 1000]              48
          Conv1d-249              [-1, 8, 1000]              48
          Conv1d-250              [-1, 8, 1000]              48
          Conv1d-251              [-1, 1, 1000]               9
        RCNNCell-252  [[-1, 1, 1000], [-1, 1, 1000]]               0
          Conv1d-253              [-1, 8, 1000]              48
          Conv1d-254              [-1, 8, 1000]              48
          Conv1d-255              [-1, 8, 1000]              48
          Conv1d-256              [-1, 8, 1000]              48
          Conv1d-257              [-1, 8, 1000]              48
          Conv1d-258              [-1, 1, 1000]               9
        RCNNCell-259  [[-1, 1, 1000], [-1, 1, 1000]]               0
          Conv1d-260              [-1, 8, 1000]              48
          Conv1d-261              [-1, 8, 1000]              48
          Conv1d-262              [-1, 8, 1000]              48
          Conv1d-263              [-1, 8, 1000]              48
          Conv1d-264              [-1, 8, 1000]              48
          Conv1d-265              [-1, 1, 1000]               9
        RCNNCell-266  [[-1, 1, 1000], [-1, 1, 1000]]               0
          Conv1d-267              [-1, 8, 1000]              48
          Conv1d-268              [-1, 8, 1000]              48
          Conv1d-269              [-1, 8, 1000]              48
          Conv1d-270              [-1, 8, 1000]              48
          Conv1d-271              [-1, 8, 1000]              48
          Conv1d-272              [-1, 1, 1000]               9
        RCNNCell-273  [[-1, 1, 1000], [-1, 1, 1000]]               0
          Conv1d-274              [-1, 8, 1000]              48
          Conv1d-275              [-1, 8, 1000]              48
          Conv1d-276              [-1, 8, 1000]              48
          Conv1d-277              [-1, 8, 1000]              48
          Conv1d-278              [-1, 8, 1000]              48
          Conv1d-279              [-1, 1, 1000]               9
        RCNNCell-280  [[-1, 1, 1000], [-1, 1, 1000]]               0
          Conv1d-281              [-1, 8, 1000]              48
          Conv1d-282              [-1, 8, 1000]              48
          Conv1d-283              [-1, 8, 1000]              48
          Conv1d-284              [-1, 8, 1000]              48
          Conv1d-285              [-1, 8, 1000]              48
          Conv1d-286              [-1, 1, 1000]               9
        RCNNCell-287  [[-1, 1, 1000], [-1, 1, 1000]]               0
          Conv1d-288              [-1, 8, 1000]              48
          Conv1d-289              [-1, 8, 1000]              48
          Conv1d-290              [-1, 8, 1000]              48
          Conv1d-291              [-1, 8, 1000]              48
          Conv1d-292              [-1, 8, 1000]              48
          Conv1d-293              [-1, 1, 1000]               9
        RCNNCell-294  [[-1, 1, 1000], [-1, 1, 1000]]               0
          Conv1d-295              [-1, 8, 1000]              48
          Conv1d-296              [-1, 8, 1000]              48
          Conv1d-297              [-1, 8, 1000]              48
          Conv1d-298              [-1, 8, 1000]              48
          Conv1d-299              [-1, 8, 1000]              48
          Conv1d-300              [-1, 1, 1000]               9
        RCNNCell-301  [[-1, 1, 1000], [-1, 1, 1000]]               0
          Conv1d-302              [-1, 8, 1000]              48
          Conv1d-303              [-1, 8, 1000]              48
          Conv1d-304              [-1, 8, 1000]              48
          Conv1d-305              [-1, 8, 1000]              48
          Conv1d-306              [-1, 8, 1000]              48
          Conv1d-307              [-1, 1, 1000]               9
        RCNNCell-308  [[-1, 1, 1000], [-1, 1, 1000]]               0
          Conv1d-309              [-1, 8, 1000]              48
          Conv1d-310              [-1, 8, 1000]              48
          Conv1d-311              [-1, 8, 1000]              48
          Conv1d-312              [-1, 8, 1000]              48
          Conv1d-313              [-1, 8, 1000]              48
          Conv1d-314              [-1, 1, 1000]               9
        RCNNCell-315  [[-1, 1, 1000], [-1, 1, 1000]]               0
          Conv1d-316              [-1, 8, 1000]              48
          Conv1d-317              [-1, 8, 1000]              48
          Conv1d-318              [-1, 8, 1000]              48
          Conv1d-319              [-1, 8, 1000]              48
          Conv1d-320              [-1, 8, 1000]              48
          Conv1d-321              [-1, 1, 1000]               9
        RCNNCell-322  [[-1, 1, 1000], [-1, 1, 1000]]               0
          Conv1d-323              [-1, 8, 1000]              48
          Conv1d-324              [-1, 8, 1000]              48
          Conv1d-325              [-1, 8, 1000]              48
          Conv1d-326              [-1, 8, 1000]              48
          Conv1d-327              [-1, 8, 1000]              48
          Conv1d-328              [-1, 1, 1000]               9
        RCNNCell-329  [[-1, 1, 1000], [-1, 1, 1000]]               0
          Conv1d-330              [-1, 8, 1000]              48
          Conv1d-331              [-1, 8, 1000]              48
          Conv1d-332              [-1, 8, 1000]              48
          Conv1d-333              [-1, 8, 1000]              48
          Conv1d-334              [-1, 8, 1000]              48
          Conv1d-335              [-1, 1, 1000]               9
        RCNNCell-336  [[-1, 1, 1000], [-1, 1, 1000]]               0
          Conv1d-337              [-1, 8, 1000]              48
          Conv1d-338              [-1, 8, 1000]              48
          Conv1d-339              [-1, 8, 1000]              48
          Conv1d-340              [-1, 8, 1000]              48
          Conv1d-341              [-1, 8, 1000]              48
          Conv1d-342              [-1, 1, 1000]               9
        RCNNCell-343  [[-1, 1, 1000], [-1, 1, 1000]]               0
          Conv1d-344              [-1, 8, 1000]              48
          Conv1d-345              [-1, 8, 1000]              48
          Conv1d-346              [-1, 8, 1000]              48
          Conv1d-347              [-1, 8, 1000]              48
          Conv1d-348              [-1, 8, 1000]              48
          Conv1d-349              [-1, 1, 1000]               9
        RCNNCell-350  [[-1, 1, 1000], [-1, 1, 1000]]               0
          Conv1d-351              [-1, 8, 1000]              48
          Conv1d-352              [-1, 8, 1000]              48
          Conv1d-353              [-1, 8, 1000]              48
          Conv1d-354              [-1, 8, 1000]              48
          Conv1d-355              [-1, 8, 1000]              48
          Conv1d-356              [-1, 1, 1000]               9
        RCNNCell-357  [[-1, 1, 1000], [-1, 1, 1000]]               0
          Conv1d-358              [-1, 8, 1000]              48
          Conv1d-359              [-1, 8, 1000]              48
          Conv1d-360              [-1, 8, 1000]              48
          Conv1d-361              [-1, 8, 1000]              48
          Conv1d-362              [-1, 8, 1000]              48
          Conv1d-363              [-1, 1, 1000]               9
        RCNNCell-364  [[-1, 1, 1000], [-1, 1, 1000]]               0
          Conv1d-365              [-1, 8, 1000]              48
          Conv1d-366              [-1, 8, 1000]              48
          Conv1d-367              [-1, 8, 1000]              48
          Conv1d-368              [-1, 8, 1000]              48
          Conv1d-369              [-1, 8, 1000]              48
          Conv1d-370              [-1, 1, 1000]               9
        RCNNCell-371  [[-1, 1, 1000], [-1, 1, 1000]]               0
          Conv1d-372              [-1, 8, 1000]              48
          Conv1d-373              [-1, 8, 1000]              48
          Conv1d-374              [-1, 8, 1000]              48
          Conv1d-375              [-1, 8, 1000]              48
          Conv1d-376              [-1, 8, 1000]              48
          Conv1d-377              [-1, 1, 1000]               9
        RCNNCell-378  [[-1, 1, 1000], [-1, 1, 1000]]               0
          Conv1d-379              [-1, 8, 1000]              48
          Conv1d-380              [-1, 8, 1000]              48
          Conv1d-381              [-1, 8, 1000]              48
          Conv1d-382              [-1, 8, 1000]              48
          Conv1d-383              [-1, 8, 1000]              48
          Conv1d-384              [-1, 1, 1000]               9
        RCNNCell-385  [[-1, 1, 1000], [-1, 1, 1000]]               0
          Conv1d-386              [-1, 8, 1000]              48
          Conv1d-387              [-1, 8, 1000]              48
          Conv1d-388              [-1, 8, 1000]              48
          Conv1d-389              [-1, 8, 1000]              48
          Conv1d-390              [-1, 8, 1000]              48
          Conv1d-391              [-1, 1, 1000]               9
        RCNNCell-392  [[-1, 1, 1000], [-1, 1, 1000]]               0
          Conv1d-393              [-1, 8, 1000]              48
          Conv1d-394              [-1, 8, 1000]              48
          Conv1d-395              [-1, 8, 1000]              48
          Conv1d-396              [-1, 8, 1000]              48
          Conv1d-397              [-1, 8, 1000]              48
          Conv1d-398              [-1, 1, 1000]               9
        RCNNCell-399  [[-1, 1, 1000], [-1, 1, 1000]]               0
          Conv1d-400              [-1, 8, 1000]              48
          Conv1d-401              [-1, 8, 1000]              48
          Conv1d-402              [-1, 8, 1000]              48
          Conv1d-403              [-1, 8, 1000]              48
          Conv1d-404              [-1, 8, 1000]              48
          Conv1d-405              [-1, 1, 1000]               9
        RCNNCell-406  [[-1, 1, 1000], [-1, 1, 1000]]               0
          Conv1d-407              [-1, 8, 1000]              48
          Conv1d-408              [-1, 8, 1000]              48
          Conv1d-409              [-1, 8, 1000]              48
          Conv1d-410              [-1, 8, 1000]              48
          Conv1d-411              [-1, 8, 1000]              48
          Conv1d-412              [-1, 1, 1000]               9
        RCNNCell-413  [[-1, 1, 1000], [-1, 1, 1000]]               0
          Conv1d-414              [-1, 8, 1000]              48
          Conv1d-415              [-1, 8, 1000]              48
          Conv1d-416              [-1, 8, 1000]              48
          Conv1d-417              [-1, 8, 1000]              48
          Conv1d-418              [-1, 8, 1000]              48
          Conv1d-419              [-1, 1, 1000]               9
        RCNNCell-420  [[-1, 1, 1000], [-1, 1, 1000]]               0
          Conv1d-421              [-1, 8, 1000]              48
          Conv1d-422              [-1, 8, 1000]              48
          Conv1d-423              [-1, 8, 1000]              48
          Conv1d-424              [-1, 8, 1000]              48
          Conv1d-425              [-1, 8, 1000]              48
          Conv1d-426              [-1, 1, 1000]               9
        RCNNCell-427  [[-1, 1, 1000], [-1, 1, 1000]]               0
          Conv1d-428              [-1, 8, 1000]              48
          Conv1d-429              [-1, 8, 1000]              48
          Conv1d-430              [-1, 8, 1000]              48
          Conv1d-431              [-1, 8, 1000]              48
          Conv1d-432              [-1, 8, 1000]              48
          Conv1d-433              [-1, 1, 1000]               9
        RCNNCell-434  [[-1, 1, 1000], [-1, 1, 1000]]               0
          Conv1d-435              [-1, 8, 1000]              48
          Conv1d-436              [-1, 8, 1000]              48
          Conv1d-437              [-1, 8, 1000]              48
          Conv1d-438              [-1, 8, 1000]              48
          Conv1d-439              [-1, 8, 1000]              48
          Conv1d-440              [-1, 1, 1000]               9
        RCNNCell-441  [[-1, 1, 1000], [-1, 1, 1000]]               0
          Conv1d-442              [-1, 8, 1000]              48
          Conv1d-443              [-1, 8, 1000]              48
          Conv1d-444              [-1, 8, 1000]              48
          Conv1d-445              [-1, 8, 1000]              48
          Conv1d-446              [-1, 8, 1000]              48
          Conv1d-447              [-1, 1, 1000]               9
        RCNNCell-448  [[-1, 1, 1000], [-1, 1, 1000]]               0
          Conv1d-449              [-1, 8, 1000]              48
          Conv1d-450              [-1, 8, 1000]              48
          Conv1d-451              [-1, 8, 1000]              48
          Conv1d-452              [-1, 8, 1000]              48
          Conv1d-453              [-1, 8, 1000]              48
          Conv1d-454              [-1, 1, 1000]               9
        RCNNCell-455  [[-1, 1, 1000], [-1, 1, 1000]]               0
          Conv1d-456              [-1, 8, 1000]              48
          Conv1d-457              [-1, 8, 1000]              48
          Conv1d-458              [-1, 8, 1000]              48
          Conv1d-459              [-1, 8, 1000]              48
          Conv1d-460              [-1, 8, 1000]              48
          Conv1d-461              [-1, 1, 1000]               9
        RCNNCell-462  [[-1, 1, 1000], [-1, 1, 1000]]               0
          Conv1d-463              [-1, 8, 1000]              48
          Conv1d-464              [-1, 8, 1000]              48
          Conv1d-465              [-1, 8, 1000]              48
          Conv1d-466              [-1, 8, 1000]              48
          Conv1d-467              [-1, 8, 1000]              48
          Conv1d-468              [-1, 1, 1000]               9
        RCNNCell-469  [[-1, 1, 1000], [-1, 1, 1000]]               0
          Conv1d-470              [-1, 8, 1000]              48
          Conv1d-471              [-1, 8, 1000]              48
          Conv1d-472              [-1, 8, 1000]              48
          Conv1d-473              [-1, 8, 1000]              48
          Conv1d-474              [-1, 8, 1000]              48
          Conv1d-475              [-1, 1, 1000]               9
        RCNNCell-476  [[-1, 1, 1000], [-1, 1, 1000]]               0
          Conv1d-477              [-1, 8, 1000]              48
          Conv1d-478              [-1, 8, 1000]              48
          Conv1d-479              [-1, 8, 1000]              48
          Conv1d-480              [-1, 8, 1000]              48
          Conv1d-481              [-1, 8, 1000]              48
          Conv1d-482              [-1, 1, 1000]               9
        RCNNCell-483  [[-1, 1, 1000], [-1, 1, 1000]]               0
          Conv1d-484              [-1, 8, 1000]              48
          Conv1d-485              [-1, 8, 1000]              48
          Conv1d-486              [-1, 8, 1000]              48
          Conv1d-487              [-1, 8, 1000]              48
          Conv1d-488              [-1, 8, 1000]              48
          Conv1d-489              [-1, 1, 1000]               9
        RCNNCell-490  [[-1, 1, 1000], [-1, 1, 1000]]               0
          Conv1d-491              [-1, 8, 1000]              48
          Conv1d-492              [-1, 8, 1000]              48
          Conv1d-493              [-1, 8, 1000]              48
          Conv1d-494              [-1, 8, 1000]              48
          Conv1d-495              [-1, 8, 1000]              48
          Conv1d-496              [-1, 1, 1000]               9
        RCNNCell-497  [[-1, 1, 1000], [-1, 1, 1000]]               0
          Conv1d-498              [-1, 8, 1000]              48
          Conv1d-499              [-1, 8, 1000]              48
          Conv1d-500              [-1, 8, 1000]              48
          Conv1d-501              [-1, 8, 1000]              48
          Conv1d-502              [-1, 8, 1000]              48
          Conv1d-503              [-1, 1, 1000]               9
        RCNNCell-504  [[-1, 1, 1000], [-1, 1, 1000]]               0
          Conv1d-505              [-1, 8, 1000]              48
          Conv1d-506              [-1, 8, 1000]              48
          Conv1d-507              [-1, 8, 1000]              48
          Conv1d-508              [-1, 8, 1000]              48
          Conv1d-509              [-1, 8, 1000]              48
          Conv1d-510              [-1, 1, 1000]               9
        RCNNCell-511  [[-1, 1, 1000], [-1, 1, 1000]]               0
          Conv1d-512              [-1, 8, 1000]              48
          Conv1d-513              [-1, 8, 1000]              48
          Conv1d-514              [-1, 8, 1000]              48
          Conv1d-515              [-1, 8, 1000]              48
          Conv1d-516              [-1, 8, 1000]              48
          Conv1d-517              [-1, 1, 1000]               9
        RCNNCell-518  [[-1, 1, 1000], [-1, 1, 1000]]               0
          Conv1d-519              [-1, 8, 1000]              48
          Conv1d-520              [-1, 8, 1000]              48
          Conv1d-521              [-1, 8, 1000]              48
          Conv1d-522              [-1, 8, 1000]              48
          Conv1d-523              [-1, 8, 1000]              48
          Conv1d-524              [-1, 1, 1000]               9
        RCNNCell-525  [[-1, 1, 1000], [-1, 1, 1000]]               0
          Conv1d-526              [-1, 8, 1000]              48
          Conv1d-527              [-1, 8, 1000]              48
          Conv1d-528              [-1, 8, 1000]              48
          Conv1d-529              [-1, 8, 1000]              48
          Conv1d-530              [-1, 8, 1000]              48
          Conv1d-531              [-1, 1, 1000]               9
        RCNNCell-532  [[-1, 1, 1000], [-1, 1, 1000]]               0
          Conv1d-533              [-1, 8, 1000]              48
          Conv1d-534              [-1, 8, 1000]              48
          Conv1d-535              [-1, 8, 1000]              48
          Conv1d-536              [-1, 8, 1000]              48
          Conv1d-537              [-1, 8, 1000]              48
          Conv1d-538              [-1, 1, 1000]               9
        RCNNCell-539  [[-1, 1, 1000], [-1, 1, 1000]]               0
          Conv1d-540              [-1, 8, 1000]              48
          Conv1d-541              [-1, 8, 1000]              48
          Conv1d-542              [-1, 8, 1000]              48
          Conv1d-543              [-1, 8, 1000]              48
          Conv1d-544              [-1, 8, 1000]              48
          Conv1d-545              [-1, 1, 1000]               9
        RCNNCell-546  [[-1, 1, 1000], [-1, 1, 1000]]               0
          Conv1d-547              [-1, 8, 1000]              48
          Conv1d-548              [-1, 8, 1000]              48
          Conv1d-549              [-1, 8, 1000]              48
          Conv1d-550              [-1, 8, 1000]              48
          Conv1d-551              [-1, 8, 1000]              48
          Conv1d-552              [-1, 1, 1000]               9
        RCNNCell-553  [[-1, 1, 1000], [-1, 1, 1000]]               0
          Conv1d-554              [-1, 8, 1000]              48
          Conv1d-555              [-1, 8, 1000]              48
          Conv1d-556              [-1, 8, 1000]              48
          Conv1d-557              [-1, 8, 1000]              48
          Conv1d-558              [-1, 8, 1000]              48
          Conv1d-559              [-1, 1, 1000]               9
        RCNNCell-560  [[-1, 1, 1000], [-1, 1, 1000]]               0
          Conv1d-561              [-1, 8, 1000]              48
          Conv1d-562              [-1, 8, 1000]              48
          Conv1d-563              [-1, 8, 1000]              48
          Conv1d-564              [-1, 8, 1000]              48
          Conv1d-565              [-1, 8, 1000]              48
          Conv1d-566              [-1, 1, 1000]               9
        RCNNCell-567  [[-1, 1, 1000], [-1, 1, 1000]]               0
          Conv1d-568              [-1, 8, 1000]              48
          Conv1d-569              [-1, 8, 1000]              48
          Conv1d-570              [-1, 8, 1000]              48
          Conv1d-571              [-1, 8, 1000]              48
          Conv1d-572              [-1, 8, 1000]              48
          Conv1d-573              [-1, 1, 1000]               9
        RCNNCell-574  [[-1, 1, 1000], [-1, 1, 1000]]               0
          Conv1d-575              [-1, 8, 1000]              48
          Conv1d-576              [-1, 8, 1000]              48
          Conv1d-577              [-1, 8, 1000]              48
          Conv1d-578              [-1, 8, 1000]              48
          Conv1d-579              [-1, 8, 1000]              48
          Conv1d-580              [-1, 1, 1000]               9
        RCNNCell-581  [[-1, 1, 1000], [-1, 1, 1000]]               0
          Conv1d-582              [-1, 8, 1000]              48
          Conv1d-583              [-1, 8, 1000]              48
          Conv1d-584              [-1, 8, 1000]              48
          Conv1d-585              [-1, 8, 1000]              48
          Conv1d-586              [-1, 8, 1000]              48
          Conv1d-587              [-1, 1, 1000]               9
        RCNNCell-588  [[-1, 1, 1000], [-1, 1, 1000]]               0
          Conv1d-589              [-1, 8, 1000]              48
          Conv1d-590              [-1, 8, 1000]              48
          Conv1d-591              [-1, 8, 1000]              48
          Conv1d-592              [-1, 8, 1000]              48
          Conv1d-593              [-1, 8, 1000]              48
          Conv1d-594              [-1, 1, 1000]               9
        RCNNCell-595  [[-1, 1, 1000], [-1, 1, 1000]]               0
          Conv1d-596              [-1, 8, 1000]              48
          Conv1d-597              [-1, 8, 1000]              48
          Conv1d-598              [-1, 8, 1000]              48
          Conv1d-599              [-1, 8, 1000]              48
          Conv1d-600              [-1, 8, 1000]              48
          Conv1d-601              [-1, 1, 1000]               9
        RCNNCell-602  [[-1, 1, 1000], [-1, 1, 1000]]               0
          Conv1d-603              [-1, 8, 1000]              48
          Conv1d-604              [-1, 8, 1000]              48
          Conv1d-605              [-1, 8, 1000]              48
          Conv1d-606              [-1, 8, 1000]              48
          Conv1d-607              [-1, 8, 1000]              48
          Conv1d-608              [-1, 1, 1000]               9
        RCNNCell-609  [[-1, 1, 1000], [-1, 1, 1000]]               0
          Conv1d-610              [-1, 8, 1000]              48
          Conv1d-611              [-1, 8, 1000]              48
          Conv1d-612              [-1, 8, 1000]              48
          Conv1d-613              [-1, 8, 1000]              48
          Conv1d-614              [-1, 8, 1000]              48
          Conv1d-615              [-1, 1, 1000]               9
        RCNNCell-616  [[-1, 1, 1000], [-1, 1, 1000]]               0
          Conv1d-617              [-1, 8, 1000]              48
          Conv1d-618              [-1, 8, 1000]              48
          Conv1d-619              [-1, 8, 1000]              48
          Conv1d-620              [-1, 8, 1000]              48
          Conv1d-621              [-1, 8, 1000]              48
          Conv1d-622              [-1, 1, 1000]               9
        RCNNCell-623  [[-1, 1, 1000], [-1, 1, 1000]]               0
          Conv1d-624              [-1, 8, 1000]              48
          Conv1d-625              [-1, 8, 1000]              48
          Conv1d-626              [-1, 8, 1000]              48
          Conv1d-627              [-1, 8, 1000]              48
          Conv1d-628              [-1, 8, 1000]              48
          Conv1d-629              [-1, 1, 1000]               9
        RCNNCell-630  [[-1, 1, 1000], [-1, 1, 1000]]               0
          Conv1d-631              [-1, 8, 1000]              48
          Conv1d-632              [-1, 8, 1000]              48
          Conv1d-633              [-1, 8, 1000]              48
          Conv1d-634              [-1, 8, 1000]              48
          Conv1d-635              [-1, 8, 1000]              48
          Conv1d-636              [-1, 1, 1000]               9
        RCNNCell-637  [[-1, 1, 1000], [-1, 1, 1000]]               0
          Conv1d-638              [-1, 8, 1000]              48
          Conv1d-639              [-1, 8, 1000]              48
          Conv1d-640              [-1, 8, 1000]              48
          Conv1d-641              [-1, 8, 1000]              48
          Conv1d-642              [-1, 8, 1000]              48
          Conv1d-643              [-1, 1, 1000]               9
        RCNNCell-644  [[-1, 1, 1000], [-1, 1, 1000]]               0
          Conv1d-645              [-1, 8, 1000]              48
          Conv1d-646              [-1, 8, 1000]              48
          Conv1d-647              [-1, 8, 1000]              48
          Conv1d-648              [-1, 8, 1000]              48
          Conv1d-649              [-1, 8, 1000]              48
          Conv1d-650              [-1, 1, 1000]               9
        RCNNCell-651  [[-1, 1, 1000], [-1, 1, 1000]]               0
          Conv1d-652              [-1, 8, 1000]              48
          Conv1d-653              [-1, 8, 1000]              48
          Conv1d-654              [-1, 8, 1000]              48
          Conv1d-655              [-1, 8, 1000]              48
          Conv1d-656              [-1, 8, 1000]              48
          Conv1d-657              [-1, 1, 1000]               9
        RCNNCell-658  [[-1, 1, 1000], [-1, 1, 1000]]               0
          Conv1d-659              [-1, 8, 1000]              48
          Conv1d-660              [-1, 8, 1000]              48
          Conv1d-661              [-1, 8, 1000]              48
          Conv1d-662              [-1, 8, 1000]              48
          Conv1d-663              [-1, 8, 1000]              48
          Conv1d-664              [-1, 1, 1000]               9
        RCNNCell-665  [[-1, 1, 1000], [-1, 1, 1000]]               0
          Conv1d-666              [-1, 8, 1000]              48
          Conv1d-667              [-1, 8, 1000]              48
          Conv1d-668              [-1, 8, 1000]              48
          Conv1d-669              [-1, 8, 1000]              48
          Conv1d-670              [-1, 8, 1000]              48
          Conv1d-671              [-1, 1, 1000]               9
        RCNNCell-672  [[-1, 1, 1000], [-1, 1, 1000]]               0
          Conv1d-673              [-1, 8, 1000]              48
          Conv1d-674              [-1, 8, 1000]              48
          Conv1d-675              [-1, 8, 1000]              48
          Conv1d-676              [-1, 8, 1000]              48
          Conv1d-677              [-1, 8, 1000]              48
          Conv1d-678              [-1, 1, 1000]               9
        RCNNCell-679  [[-1, 1, 1000], [-1, 1, 1000]]               0
          Conv1d-680              [-1, 8, 1000]              48
          Conv1d-681              [-1, 8, 1000]              48
          Conv1d-682              [-1, 8, 1000]              48
          Conv1d-683              [-1, 8, 1000]              48
          Conv1d-684              [-1, 8, 1000]              48
          Conv1d-685              [-1, 1, 1000]               9
        RCNNCell-686  [[-1, 1, 1000], [-1, 1, 1000]]               0
          Conv1d-687              [-1, 8, 1000]              48
          Conv1d-688              [-1, 8, 1000]              48
          Conv1d-689              [-1, 8, 1000]              48
          Conv1d-690              [-1, 8, 1000]              48
          Conv1d-691              [-1, 8, 1000]              48
          Conv1d-692              [-1, 1, 1000]               9
        RCNNCell-693  [[-1, 1, 1000], [-1, 1, 1000]]               0
          Conv1d-694              [-1, 8, 1000]              48
          Conv1d-695              [-1, 8, 1000]              48
          Conv1d-696              [-1, 8, 1000]              48
          Conv1d-697              [-1, 8, 1000]              48
          Conv1d-698              [-1, 8, 1000]              48
          Conv1d-699              [-1, 1, 1000]               9
        RCNNCell-700  [[-1, 1, 1000], [-1, 1, 1000]]               0
          Conv1d-701              [-1, 8, 1000]              48
          Conv1d-702              [-1, 8, 1000]              48
          Conv1d-703              [-1, 8, 1000]              48
          Conv1d-704              [-1, 8, 1000]              48
          Conv1d-705              [-1, 8, 1000]              48
          Conv1d-706              [-1, 1, 1000]               9
        RCNNCell-707  [[-1, 1, 1000], [-1, 1, 1000]]               0
          Conv1d-708              [-1, 8, 1000]              48
          Conv1d-709              [-1, 8, 1000]              48
          Conv1d-710              [-1, 8, 1000]              48
          Conv1d-711              [-1, 8, 1000]              48
          Conv1d-712              [-1, 8, 1000]              48
          Conv1d-713              [-1, 1, 1000]               9
        RCNNCell-714  [[-1, 1, 1000], [-1, 1, 1000]]               0
          Conv1d-715              [-1, 8, 1000]              48
          Conv1d-716              [-1, 8, 1000]              48
          Conv1d-717              [-1, 8, 1000]              48
          Conv1d-718              [-1, 8, 1000]              48
          Conv1d-719              [-1, 8, 1000]              48
          Conv1d-720              [-1, 1, 1000]               9
        RCNNCell-721  [[-1, 1, 1000], [-1, 1, 1000]]               0
          Conv1d-722              [-1, 8, 1000]              48
          Conv1d-723              [-1, 8, 1000]              48
          Conv1d-724              [-1, 8, 1000]              48
          Conv1d-725              [-1, 8, 1000]              48
          Conv1d-726              [-1, 8, 1000]              48
          Conv1d-727              [-1, 1, 1000]               9
        RCNNCell-728  [[-1, 1, 1000], [-1, 1, 1000]]               0
          Conv1d-729              [-1, 8, 1000]              48
          Conv1d-730              [-1, 8, 1000]              48
          Conv1d-731              [-1, 8, 1000]              48
          Conv1d-732              [-1, 8, 1000]              48
          Conv1d-733              [-1, 8, 1000]              48
          Conv1d-734              [-1, 1, 1000]               9
        RCNNCell-735  [[-1, 1, 1000], [-1, 1, 1000]]               0
          Conv1d-736              [-1, 8, 1000]              48
          Conv1d-737              [-1, 8, 1000]              48
          Conv1d-738              [-1, 8, 1000]              48
          Conv1d-739              [-1, 8, 1000]              48
          Conv1d-740              [-1, 8, 1000]              48
          Conv1d-741              [-1, 1, 1000]               9
        RCNNCell-742  [[-1, 1, 1000], [-1, 1, 1000]]               0
          Conv1d-743              [-1, 8, 1000]              48
          Conv1d-744              [-1, 8, 1000]              48
          Conv1d-745              [-1, 8, 1000]              48
          Conv1d-746              [-1, 8, 1000]              48
          Conv1d-747              [-1, 8, 1000]              48
          Conv1d-748              [-1, 1, 1000]               9
        RCNNCell-749  [[-1, 1, 1000], [-1, 1, 1000]]               0
          Conv1d-750              [-1, 8, 1000]              48
          Conv1d-751              [-1, 8, 1000]              48
          Conv1d-752              [-1, 8, 1000]              48
          Conv1d-753              [-1, 8, 1000]              48
          Conv1d-754              [-1, 8, 1000]              48
          Conv1d-755              [-1, 1, 1000]               9
        RCNNCell-756  [[-1, 1, 1000], [-1, 1, 1000]]               0
          Conv1d-757              [-1, 8, 1000]              48
          Conv1d-758              [-1, 8, 1000]              48
          Conv1d-759              [-1, 8, 1000]              48
          Conv1d-760              [-1, 8, 1000]              48
          Conv1d-761              [-1, 8, 1000]              48
          Conv1d-762              [-1, 1, 1000]               9
        RCNNCell-763  [[-1, 1, 1000], [-1, 1, 1000]]               0
          Conv1d-764              [-1, 8, 1000]              48
          Conv1d-765              [-1, 8, 1000]              48
          Conv1d-766              [-1, 8, 1000]              48
          Conv1d-767              [-1, 8, 1000]              48
          Conv1d-768              [-1, 8, 1000]              48
          Conv1d-769              [-1, 1, 1000]               9
        RCNNCell-770  [[-1, 1, 1000], [-1, 1, 1000]]               0
          Conv1d-771              [-1, 8, 1000]              48
          Conv1d-772              [-1, 8, 1000]              48
          Conv1d-773              [-1, 8, 1000]              48
          Conv1d-774              [-1, 8, 1000]              48
          Conv1d-775              [-1, 8, 1000]              48
          Conv1d-776              [-1, 1, 1000]               9
        RCNNCell-777  [[-1, 1, 1000], [-1, 1, 1000]]               0
          Conv1d-778              [-1, 8, 1000]              48
          Conv1d-779              [-1, 8, 1000]              48
          Conv1d-780              [-1, 8, 1000]              48
          Conv1d-781              [-1, 8, 1000]              48
          Conv1d-782              [-1, 8, 1000]              48
          Conv1d-783              [-1, 1, 1000]               9
        RCNNCell-784  [[-1, 1, 1000], [-1, 1, 1000]]               0
          Conv1d-785              [-1, 8, 1000]              48
          Conv1d-786              [-1, 8, 1000]              48
          Conv1d-787              [-1, 8, 1000]              48
          Conv1d-788              [-1, 8, 1000]              48
          Conv1d-789              [-1, 8, 1000]              48
          Conv1d-790              [-1, 1, 1000]               9
        RCNNCell-791  [[-1, 1, 1000], [-1, 1, 1000]]               0
          Conv1d-792              [-1, 8, 1000]              48
          Conv1d-793              [-1, 8, 1000]              48
          Conv1d-794              [-1, 8, 1000]              48
          Conv1d-795              [-1, 8, 1000]              48
          Conv1d-796              [-1, 8, 1000]              48
          Conv1d-797              [-1, 1, 1000]               9
        RCNNCell-798  [[-1, 1, 1000], [-1, 1, 1000]]               0
          Conv1d-799              [-1, 8, 1000]              48
          Conv1d-800              [-1, 8, 1000]              48
          Conv1d-801              [-1, 8, 1000]              48
          Conv1d-802              [-1, 8, 1000]              48
          Conv1d-803              [-1, 8, 1000]              48
          Conv1d-804              [-1, 1, 1000]               9
        RCNNCell-805  [[-1, 1, 1000], [-1, 1, 1000]]               0
          Conv1d-806              [-1, 8, 1000]              48
          Conv1d-807              [-1, 8, 1000]              48
          Conv1d-808              [-1, 8, 1000]              48
          Conv1d-809              [-1, 8, 1000]              48
          Conv1d-810              [-1, 8, 1000]              48
          Conv1d-811              [-1, 1, 1000]               9
        RCNNCell-812  [[-1, 1, 1000], [-1, 1, 1000]]               0
          Conv1d-813              [-1, 8, 1000]              48
          Conv1d-814              [-1, 8, 1000]              48
          Conv1d-815              [-1, 8, 1000]              48
          Conv1d-816              [-1, 8, 1000]              48
          Conv1d-817              [-1, 8, 1000]              48
          Conv1d-818              [-1, 1, 1000]               9
        RCNNCell-819  [[-1, 1, 1000], [-1, 1, 1000]]               0
          Conv1d-820              [-1, 8, 1000]              48
          Conv1d-821              [-1, 8, 1000]              48
          Conv1d-822              [-1, 8, 1000]              48
          Conv1d-823              [-1, 8, 1000]              48
          Conv1d-824              [-1, 8, 1000]              48
          Conv1d-825              [-1, 1, 1000]               9
        RCNNCell-826  [[-1, 1, 1000], [-1, 1, 1000]]               0
          Conv1d-827              [-1, 8, 1000]              48
          Conv1d-828              [-1, 8, 1000]              48
          Conv1d-829              [-1, 8, 1000]              48
          Conv1d-830              [-1, 8, 1000]              48
          Conv1d-831              [-1, 8, 1000]              48
          Conv1d-832              [-1, 1, 1000]               9
        RCNNCell-833  [[-1, 1, 1000], [-1, 1, 1000]]               0
          Conv1d-834              [-1, 8, 1000]              48
          Conv1d-835              [-1, 8, 1000]              48
          Conv1d-836              [-1, 8, 1000]              48
          Conv1d-837              [-1, 8, 1000]              48
          Conv1d-838              [-1, 8, 1000]              48
          Conv1d-839              [-1, 1, 1000]               9
        RCNNCell-840  [[-1, 1, 1000], [-1, 1, 1000]]               0
          Conv1d-841              [-1, 8, 1000]              48
          Conv1d-842              [-1, 8, 1000]              48
          Conv1d-843              [-1, 8, 1000]              48
          Conv1d-844              [-1, 8, 1000]              48
          Conv1d-845              [-1, 8, 1000]              48
          Conv1d-846              [-1, 1, 1000]               9
        RCNNCell-847  [[-1, 1, 1000], [-1, 1, 1000]]               0
          Conv1d-848              [-1, 8, 1000]              48
          Conv1d-849              [-1, 8, 1000]              48
          Conv1d-850              [-1, 8, 1000]              48
          Conv1d-851              [-1, 8, 1000]              48
          Conv1d-852              [-1, 8, 1000]              48
          Conv1d-853              [-1, 1, 1000]               9
        RCNNCell-854  [[-1, 1, 1000], [-1, 1, 1000]]               0
          Conv1d-855              [-1, 8, 1000]              48
          Conv1d-856              [-1, 8, 1000]              48
          Conv1d-857              [-1, 8, 1000]              48
          Conv1d-858              [-1, 8, 1000]              48
          Conv1d-859              [-1, 8, 1000]              48
          Conv1d-860              [-1, 1, 1000]               9
        RCNNCell-861  [[-1, 1, 1000], [-1, 1, 1000]]               0
          Conv1d-862              [-1, 8, 1000]              48
          Conv1d-863              [-1, 8, 1000]              48
          Conv1d-864              [-1, 8, 1000]              48
          Conv1d-865              [-1, 8, 1000]              48
          Conv1d-866              [-1, 8, 1000]              48
          Conv1d-867              [-1, 1, 1000]               9
        RCNNCell-868  [[-1, 1, 1000], [-1, 1, 1000]]               0
          Conv1d-869              [-1, 8, 1000]              48
          Conv1d-870              [-1, 8, 1000]              48
          Conv1d-871              [-1, 8, 1000]              48
          Conv1d-872              [-1, 8, 1000]              48
          Conv1d-873              [-1, 8, 1000]              48
          Conv1d-874              [-1, 1, 1000]               9
        RCNNCell-875  [[-1, 1, 1000], [-1, 1, 1000]]               0
          Conv1d-876              [-1, 8, 1000]              48
          Conv1d-877              [-1, 8, 1000]              48
          Conv1d-878              [-1, 8, 1000]              48
          Conv1d-879              [-1, 8, 1000]              48
          Conv1d-880              [-1, 8, 1000]              48
          Conv1d-881              [-1, 1, 1000]               9
        RCNNCell-882  [[-1, 1, 1000], [-1, 1, 1000]]               0
          Conv1d-883              [-1, 8, 1000]              48
          Conv1d-884              [-1, 8, 1000]              48
          Conv1d-885              [-1, 8, 1000]              48
          Conv1d-886              [-1, 8, 1000]              48
          Conv1d-887              [-1, 8, 1000]              48
          Conv1d-888              [-1, 1, 1000]               9
        RCNNCell-889  [[-1, 1, 1000], [-1, 1, 1000]]               0
          Conv1d-890              [-1, 8, 1000]              48
          Conv1d-891              [-1, 8, 1000]              48
          Conv1d-892              [-1, 8, 1000]              48
          Conv1d-893              [-1, 8, 1000]              48
          Conv1d-894              [-1, 8, 1000]              48
          Conv1d-895              [-1, 1, 1000]               9
        RCNNCell-896  [[-1, 1, 1000], [-1, 1, 1000]]               0
          Conv1d-897              [-1, 8, 1000]              48
          Conv1d-898              [-1, 8, 1000]              48
          Conv1d-899              [-1, 8, 1000]              48
          Conv1d-900              [-1, 8, 1000]              48
          Conv1d-901              [-1, 8, 1000]              48
          Conv1d-902              [-1, 1, 1000]               9
        RCNNCell-903  [[-1, 1, 1000], [-1, 1, 1000]]               0
          Conv1d-904              [-1, 8, 1000]              48
          Conv1d-905              [-1, 8, 1000]              48
          Conv1d-906              [-1, 8, 1000]              48
          Conv1d-907              [-1, 8, 1000]              48
          Conv1d-908              [-1, 8, 1000]              48
          Conv1d-909              [-1, 1, 1000]               9
        RCNNCell-910  [[-1, 1, 1000], [-1, 1, 1000]]               0
          Conv1d-911              [-1, 8, 1000]              48
          Conv1d-912              [-1, 8, 1000]              48
          Conv1d-913              [-1, 8, 1000]              48
          Conv1d-914              [-1, 8, 1000]              48
          Conv1d-915              [-1, 8, 1000]              48
          Conv1d-916              [-1, 1, 1000]               9
        RCNNCell-917  [[-1, 1, 1000], [-1, 1, 1000]]               0
          Conv1d-918              [-1, 8, 1000]              48
          Conv1d-919              [-1, 8, 1000]              48
          Conv1d-920              [-1, 8, 1000]              48
          Conv1d-921              [-1, 8, 1000]              48
          Conv1d-922              [-1, 8, 1000]              48
          Conv1d-923              [-1, 1, 1000]               9
        RCNNCell-924  [[-1, 1, 1000], [-1, 1, 1000]]               0
          Conv1d-925              [-1, 8, 1000]              48
          Conv1d-926              [-1, 8, 1000]              48
          Conv1d-927              [-1, 8, 1000]              48
          Conv1d-928              [-1, 8, 1000]              48
          Conv1d-929              [-1, 8, 1000]              48
          Conv1d-930              [-1, 1, 1000]               9
        RCNNCell-931  [[-1, 1, 1000], [-1, 1, 1000]]               0
          Conv1d-932              [-1, 8, 1000]              48
          Conv1d-933              [-1, 8, 1000]              48
          Conv1d-934              [-1, 8, 1000]              48
          Conv1d-935              [-1, 8, 1000]              48
          Conv1d-936              [-1, 8, 1000]              48
          Conv1d-937              [-1, 1, 1000]               9
        RCNNCell-938  [[-1, 1, 1000], [-1, 1, 1000]]               0
          Conv1d-939              [-1, 8, 1000]              48
          Conv1d-940              [-1, 8, 1000]              48
          Conv1d-941              [-1, 8, 1000]              48
          Conv1d-942              [-1, 8, 1000]              48
          Conv1d-943              [-1, 8, 1000]              48
          Conv1d-944              [-1, 1, 1000]               9
        RCNNCell-945  [[-1, 1, 1000], [-1, 1, 1000]]               0
          Conv1d-946              [-1, 8, 1000]              48
          Conv1d-947              [-1, 8, 1000]              48
          Conv1d-948              [-1, 8, 1000]              48
          Conv1d-949              [-1, 8, 1000]              48
          Conv1d-950              [-1, 8, 1000]              48
          Conv1d-951              [-1, 1, 1000]               9
        RCNNCell-952  [[-1, 1, 1000], [-1, 1, 1000]]               0
          Conv1d-953              [-1, 8, 1000]              48
          Conv1d-954              [-1, 8, 1000]              48
          Conv1d-955              [-1, 8, 1000]              48
          Conv1d-956              [-1, 8, 1000]              48
          Conv1d-957              [-1, 8, 1000]              48
          Conv1d-958              [-1, 1, 1000]               9
        RCNNCell-959  [[-1, 1, 1000], [-1, 1, 1000]]               0
          Conv1d-960              [-1, 8, 1000]              48
          Conv1d-961              [-1, 8, 1000]              48
          Conv1d-962              [-1, 8, 1000]              48
          Conv1d-963              [-1, 8, 1000]              48
          Conv1d-964              [-1, 8, 1000]              48
          Conv1d-965              [-1, 1, 1000]               9
        RCNNCell-966  [[-1, 1, 1000], [-1, 1, 1000]]               0
          Conv1d-967              [-1, 8, 1000]              48
          Conv1d-968              [-1, 8, 1000]              48
          Conv1d-969              [-1, 8, 1000]              48
          Conv1d-970              [-1, 8, 1000]              48
          Conv1d-971              [-1, 8, 1000]              48
          Conv1d-972              [-1, 1, 1000]               9
        RCNNCell-973  [[-1, 1, 1000], [-1, 1, 1000]]               0
          Conv1d-974              [-1, 8, 1000]              48
          Conv1d-975              [-1, 8, 1000]              48
          Conv1d-976              [-1, 8, 1000]              48
          Conv1d-977              [-1, 8, 1000]              48
          Conv1d-978              [-1, 8, 1000]              48
          Conv1d-979              [-1, 1, 1000]               9
        RCNNCell-980  [[-1, 1, 1000], [-1, 1, 1000]]               0
          Conv1d-981              [-1, 8, 1000]              48
          Conv1d-982              [-1, 8, 1000]              48
          Conv1d-983              [-1, 8, 1000]              48
          Conv1d-984              [-1, 8, 1000]              48
          Conv1d-985              [-1, 8, 1000]              48
          Conv1d-986              [-1, 1, 1000]               9
        RCNNCell-987  [[-1, 1, 1000], [-1, 1, 1000]]               0
          Conv1d-988              [-1, 8, 1000]              48
          Conv1d-989              [-1, 8, 1000]              48
          Conv1d-990              [-1, 8, 1000]              48
          Conv1d-991              [-1, 8, 1000]              48
          Conv1d-992              [-1, 8, 1000]              48
          Conv1d-993              [-1, 1, 1000]               9
        RCNNCell-994  [[-1, 1, 1000], [-1, 1, 1000]]               0
          Conv1d-995              [-1, 8, 1000]              48
          Conv1d-996              [-1, 8, 1000]              48
          Conv1d-997              [-1, 8, 1000]              48
          Conv1d-998              [-1, 8, 1000]              48
          Conv1d-999              [-1, 8, 1000]              48
         Conv1d-1000              [-1, 1, 1000]               9
       RCNNCell-1001  [[-1, 1, 1000], [-1, 1, 1000]]               0
         Conv1d-1002              [-1, 8, 1000]              48
         Conv1d-1003              [-1, 8, 1000]              48
         Conv1d-1004              [-1, 8, 1000]              48
         Conv1d-1005              [-1, 8, 1000]              48
         Conv1d-1006              [-1, 8, 1000]              48
         Conv1d-1007              [-1, 1, 1000]               9
       RCNNCell-1008  [[-1, 1, 1000], [-1, 1, 1000]]               0
         Conv1d-1009              [-1, 8, 1000]              48
         Conv1d-1010              [-1, 8, 1000]              48
         Conv1d-1011              [-1, 8, 1000]              48
         Conv1d-1012              [-1, 8, 1000]              48
         Conv1d-1013              [-1, 8, 1000]              48
         Conv1d-1014              [-1, 1, 1000]               9
       RCNNCell-1015  [[-1, 1, 1000], [-1, 1, 1000]]               0
         Conv1d-1016              [-1, 8, 1000]              48
         Conv1d-1017              [-1, 8, 1000]              48
         Conv1d-1018              [-1, 8, 1000]              48
         Conv1d-1019              [-1, 8, 1000]              48
         Conv1d-1020              [-1, 8, 1000]              48
         Conv1d-1021              [-1, 1, 1000]               9
       RCNNCell-1022  [[-1, 1, 1000], [-1, 1, 1000]]               0
         Conv1d-1023              [-1, 8, 1000]              48
         Conv1d-1024              [-1, 8, 1000]              48
         Conv1d-1025              [-1, 8, 1000]              48
         Conv1d-1026              [-1, 8, 1000]              48
         Conv1d-1027              [-1, 8, 1000]              48
         Conv1d-1028              [-1, 1, 1000]               9
       RCNNCell-1029  [[-1, 1, 1000], [-1, 1, 1000]]               0
         Conv1d-1030              [-1, 8, 1000]              48
         Conv1d-1031              [-1, 8, 1000]              48
         Conv1d-1032              [-1, 8, 1000]              48
         Conv1d-1033              [-1, 8, 1000]              48
         Conv1d-1034              [-1, 8, 1000]              48
         Conv1d-1035              [-1, 1, 1000]               9
       RCNNCell-1036  [[-1, 1, 1000], [-1, 1, 1000]]               0
         Conv1d-1037              [-1, 8, 1000]              48
         Conv1d-1038              [-1, 8, 1000]              48
         Conv1d-1039              [-1, 8, 1000]              48
         Conv1d-1040              [-1, 8, 1000]              48
         Conv1d-1041              [-1, 8, 1000]              48
         Conv1d-1042              [-1, 1, 1000]               9
       RCNNCell-1043  [[-1, 1, 1000], [-1, 1, 1000]]               0
         Conv1d-1044              [-1, 8, 1000]              48
         Conv1d-1045              [-1, 8, 1000]              48
         Conv1d-1046              [-1, 8, 1000]              48
         Conv1d-1047              [-1, 8, 1000]              48
         Conv1d-1048              [-1, 8, 1000]              48
         Conv1d-1049              [-1, 1, 1000]               9
       RCNNCell-1050  [[-1, 1, 1000], [-1, 1, 1000]]               0
         Conv1d-1051              [-1, 8, 1000]              48
         Conv1d-1052              [-1, 8, 1000]              48
         Conv1d-1053              [-1, 8, 1000]              48
         Conv1d-1054              [-1, 8, 1000]              48
         Conv1d-1055              [-1, 8, 1000]              48
         Conv1d-1056              [-1, 1, 1000]               9
       RCNNCell-1057  [[-1, 1, 1000], [-1, 1, 1000]]               0
         Conv1d-1058              [-1, 8, 1000]              48
         Conv1d-1059              [-1, 8, 1000]              48
         Conv1d-1060              [-1, 8, 1000]              48
         Conv1d-1061              [-1, 8, 1000]              48
         Conv1d-1062              [-1, 8, 1000]              48
         Conv1d-1063              [-1, 1, 1000]               9
       RCNNCell-1064  [[-1, 1, 1000], [-1, 1, 1000]]               0
         Conv1d-1065              [-1, 8, 1000]              48
         Conv1d-1066              [-1, 8, 1000]              48
         Conv1d-1067              [-1, 8, 1000]              48
         Conv1d-1068              [-1, 8, 1000]              48
         Conv1d-1069              [-1, 8, 1000]              48
         Conv1d-1070              [-1, 1, 1000]               9
       RCNNCell-1071  [[-1, 1, 1000], [-1, 1, 1000]]               0
         Conv1d-1072              [-1, 8, 1000]              48
         Conv1d-1073              [-1, 8, 1000]              48
         Conv1d-1074              [-1, 8, 1000]              48
         Conv1d-1075              [-1, 8, 1000]              48
         Conv1d-1076              [-1, 8, 1000]              48
         Conv1d-1077              [-1, 1, 1000]               9
       RCNNCell-1078  [[-1, 1, 1000], [-1, 1, 1000]]               0
         Conv1d-1079              [-1, 8, 1000]              48
         Conv1d-1080              [-1, 8, 1000]              48
         Conv1d-1081              [-1, 8, 1000]              48
         Conv1d-1082              [-1, 8, 1000]              48
         Conv1d-1083              [-1, 8, 1000]              48
         Conv1d-1084              [-1, 1, 1000]               9
       RCNNCell-1085  [[-1, 1, 1000], [-1, 1, 1000]]               0
         Conv1d-1086              [-1, 8, 1000]              48
         Conv1d-1087              [-1, 8, 1000]              48
         Conv1d-1088              [-1, 8, 1000]              48
         Conv1d-1089              [-1, 8, 1000]              48
         Conv1d-1090              [-1, 8, 1000]              48
         Conv1d-1091              [-1, 1, 1000]               9
       RCNNCell-1092  [[-1, 1, 1000], [-1, 1, 1000]]               0
         Conv1d-1093              [-1, 8, 1000]              48
         Conv1d-1094              [-1, 8, 1000]              48
         Conv1d-1095              [-1, 8, 1000]              48
         Conv1d-1096              [-1, 8, 1000]              48
         Conv1d-1097              [-1, 8, 1000]              48
         Conv1d-1098              [-1, 1, 1000]               9
       RCNNCell-1099  [[-1, 1, 1000], [-1, 1, 1000]]               0
         Conv1d-1100              [-1, 8, 1000]              48
         Conv1d-1101              [-1, 8, 1000]              48
         Conv1d-1102              [-1, 8, 1000]              48
         Conv1d-1103              [-1, 8, 1000]              48
         Conv1d-1104              [-1, 8, 1000]              48
         Conv1d-1105              [-1, 1, 1000]               9
       RCNNCell-1106  [[-1, 1, 1000], [-1, 1, 1000]]               0
         Conv1d-1107              [-1, 8, 1000]              48
         Conv1d-1108              [-1, 8, 1000]              48
         Conv1d-1109              [-1, 8, 1000]              48
         Conv1d-1110              [-1, 8, 1000]              48
         Conv1d-1111              [-1, 8, 1000]              48
         Conv1d-1112              [-1, 1, 1000]               9
       RCNNCell-1113  [[-1, 1, 1000], [-1, 1, 1000]]               0
         Conv1d-1114              [-1, 8, 1000]              48
         Conv1d-1115              [-1, 8, 1000]              48
         Conv1d-1116              [-1, 8, 1000]              48
         Conv1d-1117              [-1, 8, 1000]              48
         Conv1d-1118              [-1, 8, 1000]              48
         Conv1d-1119              [-1, 1, 1000]               9
       RCNNCell-1120  [[-1, 1, 1000], [-1, 1, 1000]]               0
         Conv1d-1121              [-1, 8, 1000]              48
         Conv1d-1122              [-1, 8, 1000]              48
         Conv1d-1123              [-1, 8, 1000]              48
         Conv1d-1124              [-1, 8, 1000]              48
         Conv1d-1125              [-1, 8, 1000]              48
         Conv1d-1126              [-1, 1, 1000]               9
       RCNNCell-1127  [[-1, 1, 1000], [-1, 1, 1000]]               0
         Conv1d-1128              [-1, 8, 1000]              48
         Conv1d-1129              [-1, 8, 1000]              48
         Conv1d-1130              [-1, 8, 1000]              48
         Conv1d-1131              [-1, 8, 1000]              48
         Conv1d-1132              [-1, 8, 1000]              48
         Conv1d-1133              [-1, 1, 1000]               9
       RCNNCell-1134  [[-1, 1, 1000], [-1, 1, 1000]]               0
         Conv1d-1135              [-1, 8, 1000]              48
         Conv1d-1136              [-1, 8, 1000]              48
         Conv1d-1137              [-1, 8, 1000]              48
         Conv1d-1138              [-1, 8, 1000]              48
         Conv1d-1139              [-1, 8, 1000]              48
         Conv1d-1140              [-1, 1, 1000]               9
       RCNNCell-1141  [[-1, 1, 1000], [-1, 1, 1000]]               0
         Conv1d-1142              [-1, 8, 1000]              48
         Conv1d-1143              [-1, 8, 1000]              48
         Conv1d-1144              [-1, 8, 1000]              48
         Conv1d-1145              [-1, 8, 1000]              48
         Conv1d-1146              [-1, 8, 1000]              48
         Conv1d-1147              [-1, 1, 1000]               9
       RCNNCell-1148  [[-1, 1, 1000], [-1, 1, 1000]]               0
         Conv1d-1149              [-1, 8, 1000]              48
         Conv1d-1150              [-1, 8, 1000]              48
         Conv1d-1151              [-1, 8, 1000]              48
         Conv1d-1152              [-1, 8, 1000]              48
         Conv1d-1153              [-1, 8, 1000]              48
         Conv1d-1154              [-1, 1, 1000]               9
       RCNNCell-1155  [[-1, 1, 1000], [-1, 1, 1000]]               0
         Conv1d-1156              [-1, 8, 1000]              48
         Conv1d-1157              [-1, 8, 1000]              48
         Conv1d-1158              [-1, 8, 1000]              48
         Conv1d-1159              [-1, 8, 1000]              48
         Conv1d-1160              [-1, 8, 1000]              48
         Conv1d-1161              [-1, 1, 1000]               9
       RCNNCell-1162  [[-1, 1, 1000], [-1, 1, 1000]]               0
         Conv1d-1163              [-1, 8, 1000]              48
         Conv1d-1164              [-1, 8, 1000]              48
         Conv1d-1165              [-1, 8, 1000]              48
         Conv1d-1166              [-1, 8, 1000]              48
         Conv1d-1167              [-1, 8, 1000]              48
         Conv1d-1168              [-1, 1, 1000]               9
       RCNNCell-1169  [[-1, 1, 1000], [-1, 1, 1000]]               0
         Conv1d-1170              [-1, 8, 1000]              48
         Conv1d-1171              [-1, 8, 1000]              48
         Conv1d-1172              [-1, 8, 1000]              48
         Conv1d-1173              [-1, 8, 1000]              48
         Conv1d-1174              [-1, 8, 1000]              48
         Conv1d-1175              [-1, 1, 1000]               9
       RCNNCell-1176  [[-1, 1, 1000], [-1, 1, 1000]]               0
         Conv1d-1177              [-1, 8, 1000]              48
         Conv1d-1178              [-1, 8, 1000]              48
         Conv1d-1179              [-1, 8, 1000]              48
         Conv1d-1180              [-1, 8, 1000]              48
         Conv1d-1181              [-1, 8, 1000]              48
         Conv1d-1182              [-1, 1, 1000]               9
       RCNNCell-1183  [[-1, 1, 1000], [-1, 1, 1000]]               0
         Conv1d-1184              [-1, 8, 1000]              48
         Conv1d-1185              [-1, 8, 1000]              48
         Conv1d-1186              [-1, 8, 1000]              48
         Conv1d-1187              [-1, 8, 1000]              48
         Conv1d-1188              [-1, 8, 1000]              48
         Conv1d-1189              [-1, 1, 1000]               9
       RCNNCell-1190  [[-1, 1, 1000], [-1, 1, 1000]]               0
         Conv1d-1191              [-1, 8, 1000]              48
         Conv1d-1192              [-1, 8, 1000]              48
         Conv1d-1193              [-1, 8, 1000]              48
         Conv1d-1194              [-1, 8, 1000]              48
         Conv1d-1195              [-1, 8, 1000]              48
         Conv1d-1196              [-1, 1, 1000]               9
       RCNNCell-1197  [[-1, 1, 1000], [-1, 1, 1000]]               0
         Conv1d-1198              [-1, 8, 1000]              48
         Conv1d-1199              [-1, 8, 1000]              48
         Conv1d-1200              [-1, 8, 1000]              48
         Conv1d-1201              [-1, 8, 1000]              48
         Conv1d-1202              [-1, 8, 1000]              48
         Conv1d-1203              [-1, 1, 1000]               9
       RCNNCell-1204  [[-1, 1, 1000], [-1, 1, 1000]]               0
         Conv1d-1205              [-1, 8, 1000]              48
         Conv1d-1206              [-1, 8, 1000]              48
         Conv1d-1207              [-1, 8, 1000]              48
         Conv1d-1208              [-1, 8, 1000]              48
         Conv1d-1209              [-1, 8, 1000]              48
         Conv1d-1210              [-1, 1, 1000]               9
       RCNNCell-1211  [[-1, 1, 1000], [-1, 1, 1000]]               0
         Conv1d-1212              [-1, 8, 1000]              48
         Conv1d-1213              [-1, 8, 1000]              48
         Conv1d-1214              [-1, 8, 1000]              48
         Conv1d-1215              [-1, 8, 1000]              48
         Conv1d-1216              [-1, 8, 1000]              48
         Conv1d-1217              [-1, 1, 1000]               9
       RCNNCell-1218  [[-1, 1, 1000], [-1, 1, 1000]]               0
         Conv1d-1219              [-1, 8, 1000]              48
         Conv1d-1220              [-1, 8, 1000]              48
         Conv1d-1221              [-1, 8, 1000]              48
         Conv1d-1222              [-1, 8, 1000]              48
         Conv1d-1223              [-1, 8, 1000]              48
         Conv1d-1224              [-1, 1, 1000]               9
       RCNNCell-1225  [[-1, 1, 1000], [-1, 1, 1000]]               0
         Conv1d-1226              [-1, 8, 1000]              48
         Conv1d-1227              [-1, 8, 1000]              48
         Conv1d-1228              [-1, 8, 1000]              48
         Conv1d-1229              [-1, 8, 1000]              48
         Conv1d-1230              [-1, 8, 1000]              48
         Conv1d-1231              [-1, 1, 1000]               9
       RCNNCell-1232  [[-1, 1, 1000], [-1, 1, 1000]]               0
         Conv1d-1233              [-1, 8, 1000]              48
         Conv1d-1234              [-1, 8, 1000]              48
         Conv1d-1235              [-1, 8, 1000]              48
         Conv1d-1236              [-1, 8, 1000]              48
         Conv1d-1237              [-1, 8, 1000]              48
         Conv1d-1238              [-1, 1, 1000]               9
       RCNNCell-1239  [[-1, 1, 1000], [-1, 1, 1000]]               0
         Conv1d-1240              [-1, 8, 1000]              48
         Conv1d-1241              [-1, 8, 1000]              48
         Conv1d-1242              [-1, 8, 1000]              48
         Conv1d-1243              [-1, 8, 1000]              48
         Conv1d-1244              [-1, 8, 1000]              48
         Conv1d-1245              [-1, 1, 1000]               9
       RCNNCell-1246  [[-1, 1, 1000], [-1, 1, 1000]]               0
         Conv1d-1247              [-1, 8, 1000]              48
         Conv1d-1248              [-1, 8, 1000]              48
         Conv1d-1249              [-1, 8, 1000]              48
         Conv1d-1250              [-1, 8, 1000]              48
         Conv1d-1251              [-1, 8, 1000]              48
         Conv1d-1252              [-1, 1, 1000]               9
       RCNNCell-1253  [[-1, 1, 1000], [-1, 1, 1000]]               0
         Conv1d-1254              [-1, 8, 1000]              48
         Conv1d-1255              [-1, 8, 1000]              48
         Conv1d-1256              [-1, 8, 1000]              48
         Conv1d-1257              [-1, 8, 1000]              48
         Conv1d-1258              [-1, 8, 1000]              48
         Conv1d-1259              [-1, 1, 1000]               9
       RCNNCell-1260  [[-1, 1, 1000], [-1, 1, 1000]]               0
         Conv1d-1261              [-1, 8, 1000]              48
         Conv1d-1262              [-1, 8, 1000]              48
         Conv1d-1263              [-1, 8, 1000]              48
         Conv1d-1264              [-1, 8, 1000]              48
         Conv1d-1265              [-1, 8, 1000]              48
         Conv1d-1266              [-1, 1, 1000]               9
       RCNNCell-1267  [[-1, 1, 1000], [-1, 1, 1000]]               0
         Conv1d-1268              [-1, 8, 1000]              48
         Conv1d-1269              [-1, 8, 1000]              48
         Conv1d-1270              [-1, 8, 1000]              48
         Conv1d-1271              [-1, 8, 1000]              48
         Conv1d-1272              [-1, 8, 1000]              48
         Conv1d-1273              [-1, 1, 1000]               9
       RCNNCell-1274  [[-1, 1, 1000], [-1, 1, 1000]]               0
         Conv1d-1275              [-1, 8, 1000]              48
         Conv1d-1276              [-1, 8, 1000]              48
         Conv1d-1277              [-1, 8, 1000]              48
         Conv1d-1278              [-1, 8, 1000]              48
         Conv1d-1279              [-1, 8, 1000]              48
         Conv1d-1280              [-1, 1, 1000]               9
       RCNNCell-1281  [[-1, 1, 1000], [-1, 1, 1000]]               0
         Conv1d-1282              [-1, 8, 1000]              48
         Conv1d-1283              [-1, 8, 1000]              48
         Conv1d-1284              [-1, 8, 1000]              48
         Conv1d-1285              [-1, 8, 1000]              48
         Conv1d-1286              [-1, 8, 1000]              48
         Conv1d-1287              [-1, 1, 1000]               9
       RCNNCell-1288  [[-1, 1, 1000], [-1, 1, 1000]]               0
         Conv1d-1289              [-1, 8, 1000]              48
         Conv1d-1290              [-1, 8, 1000]              48
         Conv1d-1291              [-1, 8, 1000]              48
         Conv1d-1292              [-1, 8, 1000]              48
         Conv1d-1293              [-1, 8, 1000]              48
         Conv1d-1294              [-1, 1, 1000]               9
       RCNNCell-1295  [[-1, 1, 1000], [-1, 1, 1000]]               0
         Conv1d-1296              [-1, 8, 1000]              48
         Conv1d-1297              [-1, 8, 1000]              48
         Conv1d-1298              [-1, 8, 1000]              48
         Conv1d-1299              [-1, 8, 1000]              48
         Conv1d-1300              [-1, 8, 1000]              48
         Conv1d-1301              [-1, 1, 1000]               9
       RCNNCell-1302  [[-1, 1, 1000], [-1, 1, 1000]]               0
         Conv1d-1303              [-1, 8, 1000]              48
         Conv1d-1304              [-1, 8, 1000]              48
         Conv1d-1305              [-1, 8, 1000]              48
         Conv1d-1306              [-1, 8, 1000]              48
         Conv1d-1307              [-1, 8, 1000]              48
         Conv1d-1308              [-1, 1, 1000]               9
       RCNNCell-1309  [[-1, 1, 1000], [-1, 1, 1000]]               0
         Conv1d-1310              [-1, 8, 1000]              48
         Conv1d-1311              [-1, 8, 1000]              48
         Conv1d-1312              [-1, 8, 1000]              48
         Conv1d-1313              [-1, 8, 1000]              48
         Conv1d-1314              [-1, 8, 1000]              48
         Conv1d-1315              [-1, 1, 1000]               9
       RCNNCell-1316  [[-1, 1, 1000], [-1, 1, 1000]]               0
         Conv1d-1317              [-1, 8, 1000]              48
         Conv1d-1318              [-1, 8, 1000]              48
         Conv1d-1319              [-1, 8, 1000]              48
         Conv1d-1320              [-1, 8, 1000]              48
         Conv1d-1321              [-1, 8, 1000]              48
         Conv1d-1322              [-1, 1, 1000]               9
       RCNNCell-1323  [[-1, 1, 1000], [-1, 1, 1000]]               0
         Conv1d-1324              [-1, 8, 1000]              48
         Conv1d-1325              [-1, 8, 1000]              48
         Conv1d-1326              [-1, 8, 1000]              48
         Conv1d-1327              [-1, 8, 1000]              48
         Conv1d-1328              [-1, 8, 1000]              48
         Conv1d-1329              [-1, 1, 1000]               9
       RCNNCell-1330  [[-1, 1, 1000], [-1, 1, 1000]]               0
         Conv1d-1331              [-1, 8, 1000]              48
         Conv1d-1332              [-1, 8, 1000]              48
         Conv1d-1333              [-1, 8, 1000]              48
         Conv1d-1334              [-1, 8, 1000]              48
         Conv1d-1335              [-1, 8, 1000]              48
         Conv1d-1336              [-1, 1, 1000]               9
       RCNNCell-1337  [[-1, 1, 1000], [-1, 1, 1000]]               0
         Conv1d-1338              [-1, 8, 1000]              48
         Conv1d-1339              [-1, 8, 1000]              48
         Conv1d-1340              [-1, 8, 1000]              48
         Conv1d-1341              [-1, 8, 1000]              48
         Conv1d-1342              [-1, 8, 1000]              48
         Conv1d-1343              [-1, 1, 1000]               9
       RCNNCell-1344  [[-1, 1, 1000], [-1, 1, 1000]]               0
         Conv1d-1345              [-1, 8, 1000]              48
         Conv1d-1346              [-1, 8, 1000]              48
         Conv1d-1347              [-1, 8, 1000]              48
         Conv1d-1348              [-1, 8, 1000]              48
         Conv1d-1349              [-1, 8, 1000]              48
         Conv1d-1350              [-1, 1, 1000]               9
       RCNNCell-1351  [[-1, 1, 1000], [-1, 1, 1000]]               0
         Conv1d-1352              [-1, 8, 1000]              48
         Conv1d-1353              [-1, 8, 1000]              48
         Conv1d-1354              [-1, 8, 1000]              48
         Conv1d-1355              [-1, 8, 1000]              48
         Conv1d-1356              [-1, 8, 1000]              48
         Conv1d-1357              [-1, 1, 1000]               9
       RCNNCell-1358  [[-1, 1, 1000], [-1, 1, 1000]]               0
         Conv1d-1359              [-1, 8, 1000]              48
         Conv1d-1360              [-1, 8, 1000]              48
         Conv1d-1361              [-1, 8, 1000]              48
         Conv1d-1362              [-1, 8, 1000]              48
         Conv1d-1363              [-1, 8, 1000]              48
         Conv1d-1364              [-1, 1, 1000]               9
       RCNNCell-1365  [[-1, 1, 1000], [-1, 1, 1000]]               0
         Conv1d-1366              [-1, 8, 1000]              48
         Conv1d-1367              [-1, 8, 1000]              48
         Conv1d-1368              [-1, 8, 1000]              48
         Conv1d-1369              [-1, 8, 1000]              48
         Conv1d-1370              [-1, 8, 1000]              48
         Conv1d-1371              [-1, 1, 1000]               9
       RCNNCell-1372  [[-1, 1, 1000], [-1, 1, 1000]]               0
         Conv1d-1373              [-1, 8, 1000]              48
         Conv1d-1374              [-1, 8, 1000]              48
         Conv1d-1375              [-1, 8, 1000]              48
         Conv1d-1376              [-1, 8, 1000]              48
         Conv1d-1377              [-1, 8, 1000]              48
         Conv1d-1378              [-1, 1, 1000]               9
       RCNNCell-1379  [[-1, 1, 1000], [-1, 1, 1000]]               0
         Conv1d-1380              [-1, 8, 1000]              48
         Conv1d-1381              [-1, 8, 1000]              48
         Conv1d-1382              [-1, 8, 1000]              48
         Conv1d-1383              [-1, 8, 1000]              48
         Conv1d-1384              [-1, 8, 1000]              48
         Conv1d-1385              [-1, 1, 1000]               9
       RCNNCell-1386  [[-1, 1, 1000], [-1, 1, 1000]]               0
         Conv1d-1387              [-1, 8, 1000]              48
         Conv1d-1388              [-1, 8, 1000]              48
         Conv1d-1389              [-1, 8, 1000]              48
         Conv1d-1390              [-1, 8, 1000]              48
         Conv1d-1391              [-1, 8, 1000]              48
         Conv1d-1392              [-1, 1, 1000]               9
       RCNNCell-1393  [[-1, 1, 1000], [-1, 1, 1000]]               0
         Conv1d-1394              [-1, 8, 1000]              48
         Conv1d-1395              [-1, 8, 1000]              48
         Conv1d-1396              [-1, 8, 1000]              48
         Conv1d-1397              [-1, 8, 1000]              48
         Conv1d-1398              [-1, 8, 1000]              48
         Conv1d-1399              [-1, 1, 1000]               9
       RCNNCell-1400  [[-1, 1, 1000], [-1, 1, 1000]]               0
         Conv1d-1401              [-1, 8, 1000]              48
         Conv1d-1402              [-1, 8, 1000]              48
         Conv1d-1403              [-1, 8, 1000]              48
         Conv1d-1404              [-1, 8, 1000]              48
         Conv1d-1405              [-1, 8, 1000]              48
         Conv1d-1406              [-1, 1, 1000]               9
       RCNNCell-1407  [[-1, 1, 1000], [-1, 1, 1000]]               0
         Conv1d-1408              [-1, 8, 1000]              48
         Conv1d-1409              [-1, 8, 1000]              48
         Conv1d-1410              [-1, 8, 1000]              48
         Conv1d-1411              [-1, 8, 1000]              48
         Conv1d-1412              [-1, 8, 1000]              48
         Conv1d-1413              [-1, 1, 1000]               9
       RCNNCell-1414  [[-1, 1, 1000], [-1, 1, 1000]]               0
         Conv1d-1415              [-1, 8, 1000]              48
         Conv1d-1416              [-1, 8, 1000]              48
         Conv1d-1417              [-1, 8, 1000]              48
         Conv1d-1418              [-1, 8, 1000]              48
         Conv1d-1419              [-1, 8, 1000]              48
         Conv1d-1420              [-1, 1, 1000]               9
       RCNNCell-1421  [[-1, 1, 1000], [-1, 1, 1000]]               0
         Conv1d-1422              [-1, 8, 1000]              48
         Conv1d-1423              [-1, 8, 1000]              48
         Conv1d-1424              [-1, 8, 1000]              48
         Conv1d-1425              [-1, 8, 1000]              48
         Conv1d-1426              [-1, 8, 1000]              48
         Conv1d-1427              [-1, 1, 1000]               9
       RCNNCell-1428  [[-1, 1, 1000], [-1, 1, 1000]]               0
         Conv1d-1429              [-1, 8, 1000]              48
         Conv1d-1430              [-1, 8, 1000]              48
         Conv1d-1431              [-1, 8, 1000]              48
         Conv1d-1432              [-1, 8, 1000]              48
         Conv1d-1433              [-1, 8, 1000]              48
         Conv1d-1434              [-1, 1, 1000]               9
       RCNNCell-1435  [[-1, 1, 1000], [-1, 1, 1000]]               0
         Conv1d-1436              [-1, 8, 1000]              48
         Conv1d-1437              [-1, 8, 1000]              48
         Conv1d-1438              [-1, 8, 1000]              48
         Conv1d-1439              [-1, 8, 1000]              48
         Conv1d-1440              [-1, 8, 1000]              48
         Conv1d-1441              [-1, 1, 1000]               9
       RCNNCell-1442  [[-1, 1, 1000], [-1, 1, 1000]]               0
         Conv1d-1443              [-1, 8, 1000]              48
         Conv1d-1444              [-1, 8, 1000]              48
         Conv1d-1445              [-1, 8, 1000]              48
         Conv1d-1446              [-1, 8, 1000]              48
         Conv1d-1447              [-1, 8, 1000]              48
         Conv1d-1448              [-1, 1, 1000]               9
       RCNNCell-1449  [[-1, 1, 1000], [-1, 1, 1000]]               0
         Conv1d-1450              [-1, 8, 1000]              48
         Conv1d-1451              [-1, 8, 1000]              48
         Conv1d-1452              [-1, 8, 1000]              48
         Conv1d-1453              [-1, 8, 1000]              48
         Conv1d-1454              [-1, 8, 1000]              48
         Conv1d-1455              [-1, 1, 1000]               9
       RCNNCell-1456  [[-1, 1, 1000], [-1, 1, 1000]]               0
         Conv1d-1457              [-1, 8, 1000]              48
         Conv1d-1458              [-1, 8, 1000]              48
         Conv1d-1459              [-1, 8, 1000]              48
         Conv1d-1460              [-1, 8, 1000]              48
         Conv1d-1461              [-1, 8, 1000]              48
         Conv1d-1462              [-1, 1, 1000]               9
       RCNNCell-1463  [[-1, 1, 1000], [-1, 1, 1000]]               0
         Conv1d-1464              [-1, 8, 1000]              48
         Conv1d-1465              [-1, 8, 1000]              48
         Conv1d-1466              [-1, 8, 1000]              48
         Conv1d-1467              [-1, 8, 1000]              48
         Conv1d-1468              [-1, 8, 1000]              48
         Conv1d-1469              [-1, 1, 1000]               9
       RCNNCell-1470  [[-1, 1, 1000], [-1, 1, 1000]]               0
         Conv1d-1471              [-1, 8, 1000]              48
         Conv1d-1472              [-1, 8, 1000]              48
         Conv1d-1473              [-1, 8, 1000]              48
         Conv1d-1474              [-1, 8, 1000]              48
         Conv1d-1475              [-1, 8, 1000]              48
         Conv1d-1476              [-1, 1, 1000]               9
       RCNNCell-1477  [[-1, 1, 1000], [-1, 1, 1000]]               0
         Conv1d-1478              [-1, 8, 1000]              48
         Conv1d-1479              [-1, 8, 1000]              48
         Conv1d-1480              [-1, 8, 1000]              48
         Conv1d-1481              [-1, 8, 1000]              48
         Conv1d-1482              [-1, 8, 1000]              48
         Conv1d-1483              [-1, 1, 1000]               9
       RCNNCell-1484  [[-1, 1, 1000], [-1, 1, 1000]]               0
         Conv1d-1485              [-1, 8, 1000]              48
         Conv1d-1486              [-1, 8, 1000]              48
         Conv1d-1487              [-1, 8, 1000]              48
         Conv1d-1488              [-1, 8, 1000]              48
         Conv1d-1489              [-1, 8, 1000]              48
         Conv1d-1490              [-1, 1, 1000]               9
       RCNNCell-1491  [[-1, 1, 1000], [-1, 1, 1000]]               0
         Conv1d-1492              [-1, 8, 1000]              48
         Conv1d-1493              [-1, 8, 1000]              48
         Conv1d-1494              [-1, 8, 1000]              48
         Conv1d-1495              [-1, 8, 1000]              48
         Conv1d-1496              [-1, 8, 1000]              48
         Conv1d-1497              [-1, 1, 1000]               9
       RCNNCell-1498  [[-1, 1, 1000], [-1, 1, 1000]]               0
         Conv1d-1499              [-1, 8, 1000]              48
         Conv1d-1500              [-1, 8, 1000]              48
         Conv1d-1501              [-1, 8, 1000]              48
         Conv1d-1502              [-1, 8, 1000]              48
         Conv1d-1503              [-1, 8, 1000]              48
         Conv1d-1504              [-1, 1, 1000]               9
       RCNNCell-1505  [[-1, 1, 1000], [-1, 1, 1000]]               0
         Conv1d-1506              [-1, 8, 1000]              48
         Conv1d-1507              [-1, 8, 1000]              48
         Conv1d-1508              [-1, 8, 1000]              48
         Conv1d-1509              [-1, 8, 1000]              48
         Conv1d-1510              [-1, 8, 1000]              48
         Conv1d-1511              [-1, 1, 1000]               9
       RCNNCell-1512  [[-1, 1, 1000], [-1, 1, 1000]]               0
         Conv1d-1513              [-1, 8, 1000]              48
         Conv1d-1514              [-1, 8, 1000]              48
         Conv1d-1515              [-1, 8, 1000]              48
         Conv1d-1516              [-1, 8, 1000]              48
         Conv1d-1517              [-1, 8, 1000]              48
         Conv1d-1518              [-1, 1, 1000]               9
       RCNNCell-1519  [[-1, 1, 1000], [-1, 1, 1000]]               0
         Conv1d-1520              [-1, 8, 1000]              48
         Conv1d-1521              [-1, 8, 1000]              48
         Conv1d-1522              [-1, 8, 1000]              48
         Conv1d-1523              [-1, 8, 1000]              48
         Conv1d-1524              [-1, 8, 1000]              48
         Conv1d-1525              [-1, 1, 1000]               9
       RCNNCell-1526  [[-1, 1, 1000], [-1, 1, 1000]]               0
         Conv1d-1527              [-1, 8, 1000]              48
         Conv1d-1528              [-1, 8, 1000]              48
         Conv1d-1529              [-1, 8, 1000]              48
         Conv1d-1530              [-1, 8, 1000]              48
         Conv1d-1531              [-1, 8, 1000]              48
         Conv1d-1532              [-1, 1, 1000]               9
       RCNNCell-1533  [[-1, 1, 1000], [-1, 1, 1000]]               0
         Conv1d-1534              [-1, 8, 1000]              48
         Conv1d-1535              [-1, 8, 1000]              48
         Conv1d-1536              [-1, 8, 1000]              48
         Conv1d-1537              [-1, 8, 1000]              48
         Conv1d-1538              [-1, 8, 1000]              48
         Conv1d-1539              [-1, 1, 1000]               9
       RCNNCell-1540  [[-1, 1, 1000], [-1, 1, 1000]]               0
         Conv1d-1541              [-1, 8, 1000]              48
         Conv1d-1542              [-1, 8, 1000]              48
         Conv1d-1543              [-1, 8, 1000]              48
         Conv1d-1544              [-1, 8, 1000]              48
         Conv1d-1545              [-1, 8, 1000]              48
         Conv1d-1546              [-1, 1, 1000]               9
       RCNNCell-1547  [[-1, 1, 1000], [-1, 1, 1000]]               0
         Conv1d-1548              [-1, 8, 1000]              48
         Conv1d-1549              [-1, 8, 1000]              48
         Conv1d-1550              [-1, 8, 1000]              48
         Conv1d-1551              [-1, 8, 1000]              48
         Conv1d-1552              [-1, 8, 1000]              48
         Conv1d-1553              [-1, 1, 1000]               9
       RCNNCell-1554  [[-1, 1, 1000], [-1, 1, 1000]]               0
         Conv1d-1555              [-1, 8, 1000]              48
         Conv1d-1556              [-1, 8, 1000]              48
         Conv1d-1557              [-1, 8, 1000]              48
         Conv1d-1558              [-1, 8, 1000]              48
         Conv1d-1559              [-1, 8, 1000]              48
         Conv1d-1560              [-1, 1, 1000]               9
       RCNNCell-1561  [[-1, 1, 1000], [-1, 1, 1000]]               0
         Conv1d-1562              [-1, 8, 1000]              48
         Conv1d-1563              [-1, 8, 1000]              48
         Conv1d-1564              [-1, 8, 1000]              48
         Conv1d-1565              [-1, 8, 1000]              48
         Conv1d-1566              [-1, 8, 1000]              48
         Conv1d-1567              [-1, 1, 1000]               9
       RCNNCell-1568  [[-1, 1, 1000], [-1, 1, 1000]]               0
         Conv1d-1569              [-1, 8, 1000]              48
         Conv1d-1570              [-1, 8, 1000]              48
         Conv1d-1571              [-1, 8, 1000]              48
         Conv1d-1572              [-1, 8, 1000]              48
         Conv1d-1573              [-1, 8, 1000]              48
         Conv1d-1574              [-1, 1, 1000]               9
       RCNNCell-1575  [[-1, 1, 1000], [-1, 1, 1000]]               0
         Conv1d-1576              [-1, 8, 1000]              48
         Conv1d-1577              [-1, 8, 1000]              48
         Conv1d-1578              [-1, 8, 1000]              48
         Conv1d-1579              [-1, 8, 1000]              48
         Conv1d-1580              [-1, 8, 1000]              48
         Conv1d-1581              [-1, 1, 1000]               9
       RCNNCell-1582  [[-1, 1, 1000], [-1, 1, 1000]]               0
         Conv1d-1583              [-1, 8, 1000]              48
         Conv1d-1584              [-1, 8, 1000]              48
         Conv1d-1585              [-1, 8, 1000]              48
         Conv1d-1586              [-1, 8, 1000]              48
         Conv1d-1587              [-1, 8, 1000]              48
         Conv1d-1588              [-1, 1, 1000]               9
       RCNNCell-1589  [[-1, 1, 1000], [-1, 1, 1000]]               0
         Conv1d-1590              [-1, 8, 1000]              48
         Conv1d-1591              [-1, 8, 1000]              48
         Conv1d-1592              [-1, 8, 1000]              48
         Conv1d-1593              [-1, 8, 1000]              48
         Conv1d-1594              [-1, 8, 1000]              48
         Conv1d-1595              [-1, 1, 1000]               9
       RCNNCell-1596  [[-1, 1, 1000], [-1, 1, 1000]]               0
         Conv1d-1597              [-1, 8, 1000]              48
         Conv1d-1598              [-1, 8, 1000]              48
         Conv1d-1599              [-1, 8, 1000]              48
         Conv1d-1600              [-1, 8, 1000]              48
         Conv1d-1601              [-1, 8, 1000]              48
         Conv1d-1602              [-1, 1, 1000]               9
       RCNNCell-1603  [[-1, 1, 1000], [-1, 1, 1000]]               0
         Conv1d-1604              [-1, 8, 1000]              48
         Conv1d-1605              [-1, 8, 1000]              48
         Conv1d-1606              [-1, 8, 1000]              48
         Conv1d-1607              [-1, 8, 1000]              48
         Conv1d-1608              [-1, 8, 1000]              48
         Conv1d-1609              [-1, 1, 1000]               9
       RCNNCell-1610  [[-1, 1, 1000], [-1, 1, 1000]]               0
         Conv1d-1611              [-1, 8, 1000]              48
         Conv1d-1612              [-1, 8, 1000]              48
         Conv1d-1613              [-1, 8, 1000]              48
         Conv1d-1614              [-1, 8, 1000]              48
         Conv1d-1615              [-1, 8, 1000]              48
         Conv1d-1616              [-1, 1, 1000]               9
       RCNNCell-1617  [[-1, 1, 1000], [-1, 1, 1000]]               0
         Conv1d-1618              [-1, 8, 1000]              48
         Conv1d-1619              [-1, 8, 1000]              48
         Conv1d-1620              [-1, 8, 1000]              48
         Conv1d-1621              [-1, 8, 1000]              48
         Conv1d-1622              [-1, 8, 1000]              48
         Conv1d-1623              [-1, 1, 1000]               9
       RCNNCell-1624  [[-1, 1, 1000], [-1, 1, 1000]]               0
         Conv1d-1625              [-1, 8, 1000]              48
         Conv1d-1626              [-1, 8, 1000]              48
         Conv1d-1627              [-1, 8, 1000]              48
         Conv1d-1628              [-1, 8, 1000]              48
         Conv1d-1629              [-1, 8, 1000]              48
         Conv1d-1630              [-1, 1, 1000]               9
       RCNNCell-1631  [[-1, 1, 1000], [-1, 1, 1000]]               0
         Conv1d-1632              [-1, 8, 1000]              48
         Conv1d-1633              [-1, 8, 1000]              48
         Conv1d-1634              [-1, 8, 1000]              48
         Conv1d-1635              [-1, 8, 1000]              48
         Conv1d-1636              [-1, 8, 1000]              48
         Conv1d-1637              [-1, 1, 1000]               9
       RCNNCell-1638  [[-1, 1, 1000], [-1, 1, 1000]]               0
         Conv1d-1639              [-1, 8, 1000]              48
         Conv1d-1640              [-1, 8, 1000]              48
         Conv1d-1641              [-1, 8, 1000]              48
         Conv1d-1642              [-1, 8, 1000]              48
         Conv1d-1643              [-1, 8, 1000]              48
         Conv1d-1644              [-1, 1, 1000]               9
       RCNNCell-1645  [[-1, 1, 1000], [-1, 1, 1000]]               0
         Conv1d-1646              [-1, 8, 1000]              48
         Conv1d-1647              [-1, 8, 1000]              48
         Conv1d-1648              [-1, 8, 1000]              48
         Conv1d-1649              [-1, 8, 1000]              48
         Conv1d-1650              [-1, 8, 1000]              48
         Conv1d-1651              [-1, 1, 1000]               9
       RCNNCell-1652  [[-1, 1, 1000], [-1, 1, 1000]]               0
         Conv1d-1653              [-1, 8, 1000]              48
         Conv1d-1654              [-1, 8, 1000]              48
         Conv1d-1655              [-1, 8, 1000]              48
         Conv1d-1656              [-1, 8, 1000]              48
         Conv1d-1657              [-1, 8, 1000]              48
         Conv1d-1658              [-1, 1, 1000]               9
       RCNNCell-1659  [[-1, 1, 1000], [-1, 1, 1000]]               0
         Conv1d-1660              [-1, 8, 1000]              48
         Conv1d-1661              [-1, 8, 1000]              48
         Conv1d-1662              [-1, 8, 1000]              48
         Conv1d-1663              [-1, 8, 1000]              48
         Conv1d-1664              [-1, 8, 1000]              48
         Conv1d-1665              [-1, 1, 1000]               9
       RCNNCell-1666  [[-1, 1, 1000], [-1, 1, 1000]]               0
         Conv1d-1667              [-1, 8, 1000]              48
         Conv1d-1668              [-1, 8, 1000]              48
         Conv1d-1669              [-1, 8, 1000]              48
         Conv1d-1670              [-1, 8, 1000]              48
         Conv1d-1671              [-1, 8, 1000]              48
         Conv1d-1672              [-1, 1, 1000]               9
       RCNNCell-1673  [[-1, 1, 1000], [-1, 1, 1000]]               0
         Conv1d-1674              [-1, 8, 1000]              48
         Conv1d-1675              [-1, 8, 1000]              48
         Conv1d-1676              [-1, 8, 1000]              48
         Conv1d-1677              [-1, 8, 1000]              48
         Conv1d-1678              [-1, 8, 1000]              48
         Conv1d-1679              [-1, 1, 1000]               9
       RCNNCell-1680  [[-1, 1, 1000], [-1, 1, 1000]]               0
         Conv1d-1681              [-1, 8, 1000]              48
         Conv1d-1682              [-1, 8, 1000]              48
         Conv1d-1683              [-1, 8, 1000]              48
         Conv1d-1684              [-1, 8, 1000]              48
         Conv1d-1685              [-1, 8, 1000]              48
         Conv1d-1686              [-1, 1, 1000]               9
       RCNNCell-1687  [[-1, 1, 1000], [-1, 1, 1000]]               0
         Conv1d-1688              [-1, 8, 1000]              48
         Conv1d-1689              [-1, 8, 1000]              48
         Conv1d-1690              [-1, 8, 1000]              48
         Conv1d-1691              [-1, 8, 1000]              48
         Conv1d-1692              [-1, 8, 1000]              48
         Conv1d-1693              [-1, 1, 1000]               9
       RCNNCell-1694  [[-1, 1, 1000], [-1, 1, 1000]]               0
         Conv1d-1695              [-1, 8, 1000]              48
         Conv1d-1696              [-1, 8, 1000]              48
         Conv1d-1697              [-1, 8, 1000]              48
         Conv1d-1698              [-1, 8, 1000]              48
         Conv1d-1699              [-1, 8, 1000]              48
         Conv1d-1700              [-1, 1, 1000]               9
       RCNNCell-1701  [[-1, 1, 1000], [-1, 1, 1000]]               0
         Conv1d-1702              [-1, 8, 1000]              48
         Conv1d-1703              [-1, 8, 1000]              48
         Conv1d-1704              [-1, 8, 1000]              48
         Conv1d-1705              [-1, 8, 1000]              48
         Conv1d-1706              [-1, 8, 1000]              48
         Conv1d-1707              [-1, 1, 1000]               9
       RCNNCell-1708  [[-1, 1, 1000], [-1, 1, 1000]]               0
         Conv1d-1709              [-1, 8, 1000]              48
         Conv1d-1710              [-1, 8, 1000]              48
         Conv1d-1711              [-1, 8, 1000]              48
         Conv1d-1712              [-1, 8, 1000]              48
         Conv1d-1713              [-1, 8, 1000]              48
         Conv1d-1714              [-1, 1, 1000]               9
       RCNNCell-1715  [[-1, 1, 1000], [-1, 1, 1000]]               0
         Conv1d-1716              [-1, 8, 1000]              48
         Conv1d-1717              [-1, 8, 1000]              48
         Conv1d-1718              [-1, 8, 1000]              48
         Conv1d-1719              [-1, 8, 1000]              48
         Conv1d-1720              [-1, 8, 1000]              48
         Conv1d-1721              [-1, 1, 1000]               9
       RCNNCell-1722  [[-1, 1, 1000], [-1, 1, 1000]]               0
         Conv1d-1723              [-1, 8, 1000]              48
         Conv1d-1724              [-1, 8, 1000]              48
         Conv1d-1725              [-1, 8, 1000]              48
         Conv1d-1726              [-1, 8, 1000]              48
         Conv1d-1727              [-1, 8, 1000]              48
         Conv1d-1728              [-1, 1, 1000]               9
       RCNNCell-1729  [[-1, 1, 1000], [-1, 1, 1000]]               0
         Conv1d-1730              [-1, 8, 1000]              48
         Conv1d-1731              [-1, 8, 1000]              48
         Conv1d-1732              [-1, 8, 1000]              48
         Conv1d-1733              [-1, 8, 1000]              48
         Conv1d-1734              [-1, 8, 1000]              48
         Conv1d-1735              [-1, 1, 1000]               9
       RCNNCell-1736  [[-1, 1, 1000], [-1, 1, 1000]]               0
         Conv1d-1737              [-1, 8, 1000]              48
         Conv1d-1738              [-1, 8, 1000]              48
         Conv1d-1739              [-1, 8, 1000]              48
         Conv1d-1740              [-1, 8, 1000]              48
         Conv1d-1741              [-1, 8, 1000]              48
         Conv1d-1742              [-1, 1, 1000]               9
       RCNNCell-1743  [[-1, 1, 1000], [-1, 1, 1000]]               0
         Conv1d-1744              [-1, 8, 1000]              48
         Conv1d-1745              [-1, 8, 1000]              48
         Conv1d-1746              [-1, 8, 1000]              48
         Conv1d-1747              [-1, 8, 1000]              48
         Conv1d-1748              [-1, 8, 1000]              48
         Conv1d-1749              [-1, 1, 1000]               9
       RCNNCell-1750  [[-1, 1, 1000], [-1, 1, 1000]]               0
         Conv1d-1751              [-1, 8, 1000]              48
         Conv1d-1752              [-1, 8, 1000]              48
         Conv1d-1753              [-1, 8, 1000]              48
         Conv1d-1754              [-1, 8, 1000]              48
         Conv1d-1755              [-1, 8, 1000]              48
         Conv1d-1756              [-1, 1, 1000]               9
       RCNNCell-1757  [[-1, 1, 1000], [-1, 1, 1000]]               0
         Conv1d-1758              [-1, 8, 1000]              48
         Conv1d-1759              [-1, 8, 1000]              48
         Conv1d-1760              [-1, 8, 1000]              48
         Conv1d-1761              [-1, 8, 1000]              48
         Conv1d-1762              [-1, 8, 1000]              48
         Conv1d-1763              [-1, 1, 1000]               9
       RCNNCell-1764  [[-1, 1, 1000], [-1, 1, 1000]]               0
         Conv1d-1765              [-1, 8, 1000]              48
         Conv1d-1766              [-1, 8, 1000]              48
         Conv1d-1767              [-1, 8, 1000]              48
         Conv1d-1768              [-1, 8, 1000]              48
         Conv1d-1769              [-1, 8, 1000]              48
         Conv1d-1770              [-1, 1, 1000]               9
       RCNNCell-1771  [[-1, 1, 1000], [-1, 1, 1000]]               0
         Conv1d-1772              [-1, 8, 1000]              48
         Conv1d-1773              [-1, 8, 1000]              48
         Conv1d-1774              [-1, 8, 1000]              48
         Conv1d-1775              [-1, 8, 1000]              48
         Conv1d-1776              [-1, 8, 1000]              48
         Conv1d-1777              [-1, 1, 1000]               9
       RCNNCell-1778  [[-1, 1, 1000], [-1, 1, 1000]]               0
         Conv1d-1779              [-1, 8, 1000]              48
         Conv1d-1780              [-1, 8, 1000]              48
         Conv1d-1781              [-1, 8, 1000]              48
         Conv1d-1782              [-1, 8, 1000]              48
         Conv1d-1783              [-1, 8, 1000]              48
         Conv1d-1784              [-1, 1, 1000]               9
       RCNNCell-1785  [[-1, 1, 1000], [-1, 1, 1000]]               0
         Conv1d-1786              [-1, 8, 1000]              48
         Conv1d-1787              [-1, 8, 1000]              48
         Conv1d-1788              [-1, 8, 1000]              48
         Conv1d-1789              [-1, 8, 1000]              48
         Conv1d-1790              [-1, 8, 1000]              48
         Conv1d-1791              [-1, 1, 1000]               9
       RCNNCell-1792  [[-1, 1, 1000], [-1, 1, 1000]]               0
         Conv1d-1793              [-1, 8, 1000]              48
         Conv1d-1794              [-1, 8, 1000]              48
         Conv1d-1795              [-1, 8, 1000]              48
         Conv1d-1796              [-1, 8, 1000]              48
         Conv1d-1797              [-1, 8, 1000]              48
         Conv1d-1798              [-1, 1, 1000]               9
       RCNNCell-1799  [[-1, 1, 1000], [-1, 1, 1000]]               0
         Conv1d-1800              [-1, 8, 1000]              48
         Conv1d-1801              [-1, 8, 1000]              48
         Conv1d-1802              [-1, 8, 1000]              48
         Conv1d-1803              [-1, 8, 1000]              48
         Conv1d-1804              [-1, 8, 1000]              48
         Conv1d-1805              [-1, 1, 1000]               9
       RCNNCell-1806  [[-1, 1, 1000], [-1, 1, 1000]]               0
         Conv1d-1807              [-1, 8, 1000]              48
         Conv1d-1808              [-1, 8, 1000]              48
         Conv1d-1809              [-1, 8, 1000]              48
         Conv1d-1810              [-1, 8, 1000]              48
         Conv1d-1811              [-1, 8, 1000]              48
         Conv1d-1812              [-1, 1, 1000]               9
       RCNNCell-1813  [[-1, 1, 1000], [-1, 1, 1000]]               0
         Conv1d-1814              [-1, 8, 1000]              48
         Conv1d-1815              [-1, 8, 1000]              48
         Conv1d-1816              [-1, 8, 1000]              48
         Conv1d-1817              [-1, 8, 1000]              48
         Conv1d-1818              [-1, 8, 1000]              48
         Conv1d-1819              [-1, 1, 1000]               9
       RCNNCell-1820  [[-1, 1, 1000], [-1, 1, 1000]]               0
         Conv1d-1821              [-1, 8, 1000]              48
         Conv1d-1822              [-1, 8, 1000]              48
         Conv1d-1823              [-1, 8, 1000]              48
         Conv1d-1824              [-1, 8, 1000]              48
         Conv1d-1825              [-1, 8, 1000]              48
         Conv1d-1826              [-1, 1, 1000]               9
       RCNNCell-1827  [[-1, 1, 1000], [-1, 1, 1000]]               0
         Conv1d-1828              [-1, 8, 1000]              48
         Conv1d-1829              [-1, 8, 1000]              48
         Conv1d-1830              [-1, 8, 1000]              48
         Conv1d-1831              [-1, 8, 1000]              48
         Conv1d-1832              [-1, 8, 1000]              48
         Conv1d-1833              [-1, 1, 1000]               9
       RCNNCell-1834  [[-1, 1, 1000], [-1, 1, 1000]]               0
         Conv1d-1835              [-1, 8, 1000]              48
         Conv1d-1836              [-1, 8, 1000]              48
         Conv1d-1837              [-1, 8, 1000]              48
         Conv1d-1838              [-1, 8, 1000]              48
         Conv1d-1839              [-1, 8, 1000]              48
         Conv1d-1840              [-1, 1, 1000]               9
       RCNNCell-1841  [[-1, 1, 1000], [-1, 1, 1000]]               0
         Conv1d-1842              [-1, 8, 1000]              48
         Conv1d-1843              [-1, 8, 1000]              48
         Conv1d-1844              [-1, 8, 1000]              48
         Conv1d-1845              [-1, 8, 1000]              48
         Conv1d-1846              [-1, 8, 1000]              48
         Conv1d-1847              [-1, 1, 1000]               9
       RCNNCell-1848  [[-1, 1, 1000], [-1, 1, 1000]]               0
         Conv1d-1849              [-1, 8, 1000]              48
         Conv1d-1850              [-1, 8, 1000]              48
         Conv1d-1851              [-1, 8, 1000]              48
         Conv1d-1852              [-1, 8, 1000]              48
         Conv1d-1853              [-1, 8, 1000]              48
         Conv1d-1854              [-1, 1, 1000]               9
       RCNNCell-1855  [[-1, 1, 1000], [-1, 1, 1000]]               0
         Conv1d-1856              [-1, 8, 1000]              48
         Conv1d-1857              [-1, 8, 1000]              48
         Conv1d-1858              [-1, 8, 1000]              48
         Conv1d-1859              [-1, 8, 1000]              48
         Conv1d-1860              [-1, 8, 1000]              48
         Conv1d-1861              [-1, 1, 1000]               9
       RCNNCell-1862  [[-1, 1, 1000], [-1, 1, 1000]]               0
         Conv1d-1863              [-1, 8, 1000]              48
         Conv1d-1864              [-1, 8, 1000]              48
         Conv1d-1865              [-1, 8, 1000]              48
         Conv1d-1866              [-1, 8, 1000]              48
         Conv1d-1867              [-1, 8, 1000]              48
         Conv1d-1868              [-1, 1, 1000]               9
       RCNNCell-1869  [[-1, 1, 1000], [-1, 1, 1000]]               0
         Conv1d-1870              [-1, 8, 1000]              48
         Conv1d-1871              [-1, 8, 1000]              48
         Conv1d-1872              [-1, 8, 1000]              48
         Conv1d-1873              [-1, 8, 1000]              48
         Conv1d-1874              [-1, 8, 1000]              48
         Conv1d-1875              [-1, 1, 1000]               9
       RCNNCell-1876  [[-1, 1, 1000], [-1, 1, 1000]]               0
         Conv1d-1877              [-1, 8, 1000]              48
         Conv1d-1878              [-1, 8, 1000]              48
         Conv1d-1879              [-1, 8, 1000]              48
         Conv1d-1880              [-1, 8, 1000]              48
         Conv1d-1881              [-1, 8, 1000]              48
         Conv1d-1882              [-1, 1, 1000]               9
       RCNNCell-1883  [[-1, 1, 1000], [-1, 1, 1000]]               0
         Conv1d-1884              [-1, 8, 1000]              48
         Conv1d-1885              [-1, 8, 1000]              48
         Conv1d-1886              [-1, 8, 1000]              48
         Conv1d-1887              [-1, 8, 1000]              48
         Conv1d-1888              [-1, 8, 1000]              48
         Conv1d-1889              [-1, 1, 1000]               9
       RCNNCell-1890  [[-1, 1, 1000], [-1, 1, 1000]]               0
         Conv1d-1891              [-1, 8, 1000]              48
         Conv1d-1892              [-1, 8, 1000]              48
         Conv1d-1893              [-1, 8, 1000]              48
         Conv1d-1894              [-1, 8, 1000]              48
         Conv1d-1895              [-1, 8, 1000]              48
         Conv1d-1896              [-1, 1, 1000]               9
       RCNNCell-1897  [[-1, 1, 1000], [-1, 1, 1000]]               0
         Conv1d-1898              [-1, 8, 1000]              48
         Conv1d-1899              [-1, 8, 1000]              48
         Conv1d-1900              [-1, 8, 1000]              48
         Conv1d-1901              [-1, 8, 1000]              48
         Conv1d-1902              [-1, 8, 1000]              48
         Conv1d-1903              [-1, 1, 1000]               9
       RCNNCell-1904  [[-1, 1, 1000], [-1, 1, 1000]]               0
         Conv1d-1905              [-1, 8, 1000]              48
         Conv1d-1906              [-1, 8, 1000]              48
         Conv1d-1907              [-1, 8, 1000]              48
         Conv1d-1908              [-1, 8, 1000]              48
         Conv1d-1909              [-1, 8, 1000]              48
         Conv1d-1910              [-1, 1, 1000]               9
       RCNNCell-1911  [[-1, 1, 1000], [-1, 1, 1000]]               0
         Conv1d-1912              [-1, 8, 1000]              48
         Conv1d-1913              [-1, 8, 1000]              48
         Conv1d-1914              [-1, 8, 1000]              48
         Conv1d-1915              [-1, 8, 1000]              48
         Conv1d-1916              [-1, 8, 1000]              48
         Conv1d-1917              [-1, 1, 1000]               9
       RCNNCell-1918  [[-1, 1, 1000], [-1, 1, 1000]]               0
         Conv1d-1919              [-1, 8, 1000]              48
         Conv1d-1920              [-1, 8, 1000]              48
         Conv1d-1921              [-1, 8, 1000]              48
         Conv1d-1922              [-1, 8, 1000]              48
         Conv1d-1923              [-1, 8, 1000]              48
         Conv1d-1924              [-1, 1, 1000]               9
       RCNNCell-1925  [[-1, 1, 1000], [-1, 1, 1000]]               0
         Conv1d-1926              [-1, 8, 1000]              48
         Conv1d-1927              [-1, 8, 1000]              48
         Conv1d-1928              [-1, 8, 1000]              48
         Conv1d-1929              [-1, 8, 1000]              48
         Conv1d-1930              [-1, 8, 1000]              48
         Conv1d-1931              [-1, 1, 1000]               9
       RCNNCell-1932  [[-1, 1, 1000], [-1, 1, 1000]]               0
         Conv1d-1933              [-1, 8, 1000]              48
         Conv1d-1934              [-1, 8, 1000]              48
         Conv1d-1935              [-1, 8, 1000]              48
         Conv1d-1936              [-1, 8, 1000]              48
         Conv1d-1937              [-1, 8, 1000]              48
         Conv1d-1938              [-1, 1, 1000]               9
       RCNNCell-1939  [[-1, 1, 1000], [-1, 1, 1000]]               0
         Conv1d-1940              [-1, 8, 1000]              48
         Conv1d-1941              [-1, 8, 1000]              48
         Conv1d-1942              [-1, 8, 1000]              48
         Conv1d-1943              [-1, 8, 1000]              48
         Conv1d-1944              [-1, 8, 1000]              48
         Conv1d-1945              [-1, 1, 1000]               9
       RCNNCell-1946  [[-1, 1, 1000], [-1, 1, 1000]]               0
         Conv1d-1947              [-1, 8, 1000]              48
         Conv1d-1948              [-1, 8, 1000]              48
         Conv1d-1949              [-1, 8, 1000]              48
         Conv1d-1950              [-1, 8, 1000]              48
         Conv1d-1951              [-1, 8, 1000]              48
         Conv1d-1952              [-1, 1, 1000]               9
       RCNNCell-1953  [[-1, 1, 1000], [-1, 1, 1000]]               0
         Conv1d-1954              [-1, 8, 1000]              48
         Conv1d-1955              [-1, 8, 1000]              48
         Conv1d-1956              [-1, 8, 1000]              48
         Conv1d-1957              [-1, 8, 1000]              48
         Conv1d-1958              [-1, 8, 1000]              48
         Conv1d-1959              [-1, 1, 1000]               9
       RCNNCell-1960  [[-1, 1, 1000], [-1, 1, 1000]]               0
         Conv1d-1961              [-1, 8, 1000]              48
         Conv1d-1962              [-1, 8, 1000]              48
         Conv1d-1963              [-1, 8, 1000]              48
         Conv1d-1964              [-1, 8, 1000]              48
         Conv1d-1965              [-1, 8, 1000]              48
         Conv1d-1966              [-1, 1, 1000]               9
       RCNNCell-1967  [[-1, 1, 1000], [-1, 1, 1000]]               0
         Conv1d-1968              [-1, 8, 1000]              48
         Conv1d-1969              [-1, 8, 1000]              48
         Conv1d-1970              [-1, 8, 1000]              48
         Conv1d-1971              [-1, 8, 1000]              48
         Conv1d-1972              [-1, 8, 1000]              48
         Conv1d-1973              [-1, 1, 1000]               9
       RCNNCell-1974  [[-1, 1, 1000], [-1, 1, 1000]]               0
         Conv1d-1975              [-1, 8, 1000]              48
         Conv1d-1976              [-1, 8, 1000]              48
         Conv1d-1977              [-1, 8, 1000]              48
         Conv1d-1978              [-1, 8, 1000]              48
         Conv1d-1979              [-1, 8, 1000]              48
         Conv1d-1980              [-1, 1, 1000]               9
       RCNNCell-1981  [[-1, 1, 1000], [-1, 1, 1000]]               0
         Conv1d-1982              [-1, 8, 1000]              48
         Conv1d-1983              [-1, 8, 1000]              48
         Conv1d-1984              [-1, 8, 1000]              48
         Conv1d-1985              [-1, 8, 1000]              48
         Conv1d-1986              [-1, 8, 1000]              48
         Conv1d-1987              [-1, 1, 1000]               9
       RCNNCell-1988  [[-1, 1, 1000], [-1, 1, 1000]]               0
         Conv1d-1989              [-1, 8, 1000]              48
         Conv1d-1990              [-1, 8, 1000]              48
         Conv1d-1991              [-1, 8, 1000]              48
         Conv1d-1992              [-1, 8, 1000]              48
         Conv1d-1993              [-1, 8, 1000]              48
         Conv1d-1994              [-1, 1, 1000]               9
       RCNNCell-1995  [[-1, 1, 1000], [-1, 1, 1000]]               0
         Conv1d-1996              [-1, 8, 1000]              48
         Conv1d-1997              [-1, 8, 1000]              48
         Conv1d-1998              [-1, 8, 1000]              48
         Conv1d-1999              [-1, 8, 1000]              48
         Conv1d-2000              [-1, 8, 1000]              48
         Conv1d-2001              [-1, 1, 1000]               9
       RCNNCell-2002  [[-1, 1, 1000], [-1, 1, 1000]]               0
         Conv1d-2003              [-1, 8, 1000]              48
         Conv1d-2004              [-1, 8, 1000]              48
         Conv1d-2005              [-1, 8, 1000]              48
         Conv1d-2006              [-1, 8, 1000]              48
         Conv1d-2007              [-1, 8, 1000]              48
         Conv1d-2008              [-1, 1, 1000]               9
       RCNNCell-2009  [[-1, 1, 1000], [-1, 1, 1000]]               0
         Conv1d-2010              [-1, 8, 1000]              48
         Conv1d-2011              [-1, 8, 1000]              48
         Conv1d-2012              [-1, 8, 1000]              48
         Conv1d-2013              [-1, 8, 1000]              48
         Conv1d-2014              [-1, 8, 1000]              48
         Conv1d-2015              [-1, 1, 1000]               9
       RCNNCell-2016  [[-1, 1, 1000], [-1, 1, 1000]]               0
         Conv1d-2017              [-1, 8, 1000]              48
         Conv1d-2018              [-1, 8, 1000]              48
         Conv1d-2019              [-1, 8, 1000]              48
         Conv1d-2020              [-1, 8, 1000]              48
         Conv1d-2021              [-1, 8, 1000]              48
         Conv1d-2022              [-1, 1, 1000]               9
       RCNNCell-2023  [[-1, 1, 1000], [-1, 1, 1000]]               0
         Conv1d-2024              [-1, 8, 1000]              48
         Conv1d-2025              [-1, 8, 1000]              48
         Conv1d-2026              [-1, 8, 1000]              48
         Conv1d-2027              [-1, 8, 1000]              48
         Conv1d-2028              [-1, 8, 1000]              48
         Conv1d-2029              [-1, 1, 1000]               9
       RCNNCell-2030  [[-1, 1, 1000], [-1, 1, 1000]]               0
         Conv1d-2031              [-1, 8, 1000]              48
         Conv1d-2032              [-1, 8, 1000]              48
         Conv1d-2033              [-1, 8, 1000]              48
         Conv1d-2034              [-1, 8, 1000]              48
         Conv1d-2035              [-1, 8, 1000]              48
         Conv1d-2036              [-1, 1, 1000]               9
       RCNNCell-2037  [[-1, 1, 1000], [-1, 1, 1000]]               0
         Conv1d-2038              [-1, 8, 1000]              48
         Conv1d-2039              [-1, 8, 1000]              48
         Conv1d-2040              [-1, 8, 1000]              48
         Conv1d-2041              [-1, 8, 1000]              48
         Conv1d-2042              [-1, 8, 1000]              48
         Conv1d-2043              [-1, 1, 1000]               9
       RCNNCell-2044  [[-1, 1, 1000], [-1, 1, 1000]]               0
         Conv1d-2045              [-1, 8, 1000]              48
         Conv1d-2046              [-1, 8, 1000]              48
         Conv1d-2047              [-1, 8, 1000]              48
         Conv1d-2048              [-1, 8, 1000]              48
         Conv1d-2049              [-1, 8, 1000]              48
         Conv1d-2050              [-1, 1, 1000]               9
       RCNNCell-2051  [[-1, 1, 1000], [-1, 1, 1000]]               0
         Conv1d-2052              [-1, 8, 1000]              48
         Conv1d-2053              [-1, 8, 1000]              48
         Conv1d-2054              [-1, 8, 1000]              48
         Conv1d-2055              [-1, 8, 1000]              48
         Conv1d-2056              [-1, 8, 1000]              48
         Conv1d-2057              [-1, 1, 1000]               9
       RCNNCell-2058  [[-1, 1, 1000], [-1, 1, 1000]]               0
         Conv1d-2059              [-1, 8, 1000]              48
         Conv1d-2060              [-1, 8, 1000]              48
         Conv1d-2061              [-1, 8, 1000]              48
         Conv1d-2062              [-1, 8, 1000]              48
         Conv1d-2063              [-1, 8, 1000]              48
         Conv1d-2064              [-1, 1, 1000]               9
       RCNNCell-2065  [[-1, 1, 1000], [-1, 1, 1000]]               0
         Conv1d-2066              [-1, 8, 1000]              48
         Conv1d-2067              [-1, 8, 1000]              48
         Conv1d-2068              [-1, 8, 1000]              48
         Conv1d-2069              [-1, 8, 1000]              48
         Conv1d-2070              [-1, 8, 1000]              48
         Conv1d-2071              [-1, 1, 1000]               9
       RCNNCell-2072  [[-1, 1, 1000], [-1, 1, 1000]]               0
         Conv1d-2073              [-1, 8, 1000]              48
         Conv1d-2074              [-1, 8, 1000]              48
         Conv1d-2075              [-1, 8, 1000]              48
         Conv1d-2076              [-1, 8, 1000]              48
         Conv1d-2077              [-1, 8, 1000]              48
         Conv1d-2078              [-1, 1, 1000]               9
       RCNNCell-2079  [[-1, 1, 1000], [-1, 1, 1000]]               0
         Conv1d-2080              [-1, 8, 1000]              48
         Conv1d-2081              [-1, 8, 1000]              48
         Conv1d-2082              [-1, 8, 1000]              48
         Conv1d-2083              [-1, 8, 1000]              48
         Conv1d-2084              [-1, 8, 1000]              48
         Conv1d-2085              [-1, 1, 1000]               9
       RCNNCell-2086  [[-1, 1, 1000], [-1, 1, 1000]]               0
         Conv1d-2087              [-1, 8, 1000]              48
         Conv1d-2088              [-1, 8, 1000]              48
         Conv1d-2089              [-1, 8, 1000]              48
         Conv1d-2090              [-1, 8, 1000]              48
         Conv1d-2091              [-1, 8, 1000]              48
         Conv1d-2092              [-1, 1, 1000]               9
       RCNNCell-2093  [[-1, 1, 1000], [-1, 1, 1000]]               0
         Conv1d-2094              [-1, 8, 1000]              48
         Conv1d-2095              [-1, 8, 1000]              48
         Conv1d-2096              [-1, 8, 1000]              48
         Conv1d-2097              [-1, 8, 1000]              48
         Conv1d-2098              [-1, 8, 1000]              48
         Conv1d-2099              [-1, 1, 1000]               9
       RCNNCell-2100  [[-1, 1, 1000], [-1, 1, 1000]]               0
         Conv1d-2101              [-1, 8, 1000]              48
         Conv1d-2102              [-1, 8, 1000]              48
         Conv1d-2103              [-1, 8, 1000]              48
         Conv1d-2104              [-1, 8, 1000]              48
         Conv1d-2105              [-1, 8, 1000]              48
         Conv1d-2106              [-1, 1, 1000]               9
       RCNNCell-2107  [[-1, 1, 1000], [-1, 1, 1000]]               0
         Conv1d-2108              [-1, 8, 1000]              48
         Conv1d-2109              [-1, 8, 1000]              48
         Conv1d-2110              [-1, 8, 1000]              48
         Conv1d-2111              [-1, 8, 1000]              48
         Conv1d-2112              [-1, 8, 1000]              48
         Conv1d-2113              [-1, 1, 1000]               9
       RCNNCell-2114  [[-1, 1, 1000], [-1, 1, 1000]]               0
         Conv1d-2115              [-1, 8, 1000]              48
         Conv1d-2116              [-1, 8, 1000]              48
         Conv1d-2117              [-1, 8, 1000]              48
         Conv1d-2118              [-1, 8, 1000]              48
         Conv1d-2119              [-1, 8, 1000]              48
         Conv1d-2120              [-1, 1, 1000]               9
       RCNNCell-2121  [[-1, 1, 1000], [-1, 1, 1000]]               0
         Conv1d-2122              [-1, 8, 1000]              48
         Conv1d-2123              [-1, 8, 1000]              48
         Conv1d-2124              [-1, 8, 1000]              48
         Conv1d-2125              [-1, 8, 1000]              48
         Conv1d-2126              [-1, 8, 1000]              48
         Conv1d-2127              [-1, 1, 1000]               9
       RCNNCell-2128  [[-1, 1, 1000], [-1, 1, 1000]]               0
         Conv1d-2129              [-1, 8, 1000]              48
         Conv1d-2130              [-1, 8, 1000]              48
         Conv1d-2131              [-1, 8, 1000]              48
         Conv1d-2132              [-1, 8, 1000]              48
         Conv1d-2133              [-1, 8, 1000]              48
         Conv1d-2134              [-1, 1, 1000]               9
       RCNNCell-2135  [[-1, 1, 1000], [-1, 1, 1000]]               0
         Conv1d-2136              [-1, 8, 1000]              48
         Conv1d-2137              [-1, 8, 1000]              48
         Conv1d-2138              [-1, 8, 1000]              48
         Conv1d-2139              [-1, 8, 1000]              48
         Conv1d-2140              [-1, 8, 1000]              48
         Conv1d-2141              [-1, 1, 1000]               9
       RCNNCell-2142  [[-1, 1, 1000], [-1, 1, 1000]]               0
         Conv1d-2143              [-1, 8, 1000]              48
         Conv1d-2144              [-1, 8, 1000]              48
         Conv1d-2145              [-1, 8, 1000]              48
         Conv1d-2146              [-1, 8, 1000]              48
         Conv1d-2147              [-1, 8, 1000]              48
         Conv1d-2148              [-1, 1, 1000]               9
       RCNNCell-2149  [[-1, 1, 1000], [-1, 1, 1000]]               0
         Conv1d-2150              [-1, 8, 1000]              48
         Conv1d-2151              [-1, 8, 1000]              48
         Conv1d-2152              [-1, 8, 1000]              48
         Conv1d-2153              [-1, 8, 1000]              48
         Conv1d-2154              [-1, 8, 1000]              48
         Conv1d-2155              [-1, 1, 1000]               9
       RCNNCell-2156  [[-1, 1, 1000], [-1, 1, 1000]]               0
         Conv1d-2157              [-1, 8, 1000]              48
         Conv1d-2158              [-1, 8, 1000]              48
         Conv1d-2159              [-1, 8, 1000]              48
         Conv1d-2160              [-1, 8, 1000]              48
         Conv1d-2161              [-1, 8, 1000]              48
         Conv1d-2162              [-1, 1, 1000]               9
       RCNNCell-2163  [[-1, 1, 1000], [-1, 1, 1000]]               0
         Conv1d-2164              [-1, 8, 1000]              48
         Conv1d-2165              [-1, 8, 1000]              48
         Conv1d-2166              [-1, 8, 1000]              48
         Conv1d-2167              [-1, 8, 1000]              48
         Conv1d-2168              [-1, 8, 1000]              48
         Conv1d-2169              [-1, 1, 1000]               9
       RCNNCell-2170  [[-1, 1, 1000], [-1, 1, 1000]]               0
         Conv1d-2171              [-1, 8, 1000]              48
         Conv1d-2172              [-1, 8, 1000]              48
         Conv1d-2173              [-1, 8, 1000]              48
         Conv1d-2174              [-1, 8, 1000]              48
         Conv1d-2175              [-1, 8, 1000]              48
         Conv1d-2176              [-1, 1, 1000]               9
       RCNNCell-2177  [[-1, 1, 1000], [-1, 1, 1000]]               0
         Conv1d-2178              [-1, 8, 1000]              48
         Conv1d-2179              [-1, 8, 1000]              48
         Conv1d-2180              [-1, 8, 1000]              48
         Conv1d-2181              [-1, 8, 1000]              48
         Conv1d-2182              [-1, 8, 1000]              48
         Conv1d-2183              [-1, 1, 1000]               9
       RCNNCell-2184  [[-1, 1, 1000], [-1, 1, 1000]]               0
         Conv1d-2185              [-1, 8, 1000]              48
         Conv1d-2186              [-1, 8, 1000]              48
         Conv1d-2187              [-1, 8, 1000]              48
         Conv1d-2188              [-1, 8, 1000]              48
         Conv1d-2189              [-1, 8, 1000]              48
         Conv1d-2190              [-1, 1, 1000]               9
       RCNNCell-2191  [[-1, 1, 1000], [-1, 1, 1000]]               0
         Conv1d-2192              [-1, 8, 1000]              48
         Conv1d-2193              [-1, 8, 1000]              48
         Conv1d-2194              [-1, 8, 1000]              48
         Conv1d-2195              [-1, 8, 1000]              48
         Conv1d-2196              [-1, 8, 1000]              48
         Conv1d-2197              [-1, 1, 1000]               9
       RCNNCell-2198  [[-1, 1, 1000], [-1, 1, 1000]]               0
         Conv1d-2199              [-1, 8, 1000]              48
         Conv1d-2200              [-1, 8, 1000]              48
         Conv1d-2201              [-1, 8, 1000]              48
         Conv1d-2202              [-1, 8, 1000]              48
         Conv1d-2203              [-1, 8, 1000]              48
         Conv1d-2204              [-1, 1, 1000]               9
       RCNNCell-2205  [[-1, 1, 1000], [-1, 1, 1000]]               0
         Conv1d-2206              [-1, 8, 1000]              48
         Conv1d-2207              [-1, 8, 1000]              48
         Conv1d-2208              [-1, 8, 1000]              48
         Conv1d-2209              [-1, 8, 1000]              48
         Conv1d-2210              [-1, 8, 1000]              48
         Conv1d-2211              [-1, 1, 1000]               9
       RCNNCell-2212  [[-1, 1, 1000], [-1, 1, 1000]]               0
         Conv1d-2213              [-1, 8, 1000]              48
         Conv1d-2214              [-1, 8, 1000]              48
         Conv1d-2215              [-1, 8, 1000]              48
         Conv1d-2216              [-1, 8, 1000]              48
         Conv1d-2217              [-1, 8, 1000]              48
         Conv1d-2218              [-1, 1, 1000]               9
       RCNNCell-2219  [[-1, 1, 1000], [-1, 1, 1000]]               0
         Conv1d-2220              [-1, 8, 1000]              48
         Conv1d-2221              [-1, 8, 1000]              48
         Conv1d-2222              [-1, 8, 1000]              48
         Conv1d-2223              [-1, 8, 1000]              48
         Conv1d-2224              [-1, 8, 1000]              48
         Conv1d-2225              [-1, 1, 1000]               9
       RCNNCell-2226  [[-1, 1, 1000], [-1, 1, 1000]]               0
         Conv1d-2227              [-1, 8, 1000]              48
         Conv1d-2228              [-1, 8, 1000]              48
         Conv1d-2229              [-1, 8, 1000]              48
         Conv1d-2230              [-1, 8, 1000]              48
         Conv1d-2231              [-1, 8, 1000]              48
         Conv1d-2232              [-1, 1, 1000]               9
       RCNNCell-2233  [[-1, 1, 1000], [-1, 1, 1000]]               0
         Conv1d-2234              [-1, 8, 1000]              48
         Conv1d-2235              [-1, 8, 1000]              48
         Conv1d-2236              [-1, 8, 1000]              48
         Conv1d-2237              [-1, 8, 1000]              48
         Conv1d-2238              [-1, 8, 1000]              48
         Conv1d-2239              [-1, 1, 1000]               9
       RCNNCell-2240  [[-1, 1, 1000], [-1, 1, 1000]]               0
         Conv1d-2241              [-1, 8, 1000]              48
         Conv1d-2242              [-1, 8, 1000]              48
         Conv1d-2243              [-1, 8, 1000]              48
         Conv1d-2244              [-1, 8, 1000]              48
         Conv1d-2245              [-1, 8, 1000]              48
         Conv1d-2246              [-1, 1, 1000]               9
       RCNNCell-2247  [[-1, 1, 1000], [-1, 1, 1000]]               0
         Conv1d-2248              [-1, 8, 1000]              48
         Conv1d-2249              [-1, 8, 1000]              48
         Conv1d-2250              [-1, 8, 1000]              48
         Conv1d-2251              [-1, 8, 1000]              48
         Conv1d-2252              [-1, 8, 1000]              48
         Conv1d-2253              [-1, 1, 1000]               9
       RCNNCell-2254  [[-1, 1, 1000], [-1, 1, 1000]]               0
         Conv1d-2255              [-1, 8, 1000]              48
         Conv1d-2256              [-1, 8, 1000]              48
         Conv1d-2257              [-1, 8, 1000]              48
         Conv1d-2258              [-1, 8, 1000]              48
         Conv1d-2259              [-1, 8, 1000]              48
         Conv1d-2260              [-1, 1, 1000]               9
       RCNNCell-2261  [[-1, 1, 1000], [-1, 1, 1000]]               0
         Conv1d-2262              [-1, 8, 1000]              48
         Conv1d-2263              [-1, 8, 1000]              48
         Conv1d-2264              [-1, 8, 1000]              48
         Conv1d-2265              [-1, 8, 1000]              48
         Conv1d-2266              [-1, 8, 1000]              48
         Conv1d-2267              [-1, 1, 1000]               9
       RCNNCell-2268  [[-1, 1, 1000], [-1, 1, 1000]]               0
         Conv1d-2269              [-1, 8, 1000]              48
         Conv1d-2270              [-1, 8, 1000]              48
         Conv1d-2271              [-1, 8, 1000]              48
         Conv1d-2272              [-1, 8, 1000]              48
         Conv1d-2273              [-1, 8, 1000]              48
         Conv1d-2274              [-1, 1, 1000]               9
       RCNNCell-2275  [[-1, 1, 1000], [-1, 1, 1000]]               0
         Conv1d-2276              [-1, 8, 1000]              48
         Conv1d-2277              [-1, 8, 1000]              48
         Conv1d-2278              [-1, 8, 1000]              48
         Conv1d-2279              [-1, 8, 1000]              48
         Conv1d-2280              [-1, 8, 1000]              48
         Conv1d-2281              [-1, 1, 1000]               9
       RCNNCell-2282  [[-1, 1, 1000], [-1, 1, 1000]]               0
         Conv1d-2283              [-1, 8, 1000]              48
         Conv1d-2284              [-1, 8, 1000]              48
         Conv1d-2285              [-1, 8, 1000]              48
         Conv1d-2286              [-1, 8, 1000]              48
         Conv1d-2287              [-1, 8, 1000]              48
         Conv1d-2288              [-1, 1, 1000]               9
       RCNNCell-2289  [[-1, 1, 1000], [-1, 1, 1000]]               0
         Conv1d-2290              [-1, 8, 1000]              48
         Conv1d-2291              [-1, 8, 1000]              48
         Conv1d-2292              [-1, 8, 1000]              48
         Conv1d-2293              [-1, 8, 1000]              48
         Conv1d-2294              [-1, 8, 1000]              48
         Conv1d-2295              [-1, 1, 1000]               9
       RCNNCell-2296  [[-1, 1, 1000], [-1, 1, 1000]]               0
         Conv1d-2297              [-1, 8, 1000]              48
         Conv1d-2298              [-1, 8, 1000]              48
         Conv1d-2299              [-1, 8, 1000]              48
         Conv1d-2300              [-1, 8, 1000]              48
         Conv1d-2301              [-1, 8, 1000]              48
         Conv1d-2302              [-1, 1, 1000]               9
       RCNNCell-2303  [[-1, 1, 1000], [-1, 1, 1000]]               0
         Conv1d-2304              [-1, 8, 1000]              48
         Conv1d-2305              [-1, 8, 1000]              48
         Conv1d-2306              [-1, 8, 1000]              48
         Conv1d-2307              [-1, 8, 1000]              48
         Conv1d-2308              [-1, 8, 1000]              48
         Conv1d-2309              [-1, 1, 1000]               9
       RCNNCell-2310  [[-1, 1, 1000], [-1, 1, 1000]]               0
         Conv1d-2311              [-1, 8, 1000]              48
         Conv1d-2312              [-1, 8, 1000]              48
         Conv1d-2313              [-1, 8, 1000]              48
         Conv1d-2314              [-1, 8, 1000]              48
…
         Conv1d-6234              [-1, 8, 1000]              48
         Conv1d-6235              [-1, 8, 1000]              48
         Conv1d-6236              [-1, 1, 1000]               9
       RCNNCell-6237  [[-1, 1, 1000], [-1, 1, 1000]]               0
         Conv1d-6238              [-1, 8, 1000]              48
         Conv1d-6239              [-1, 8, 1000]              48
         Conv1d-6240              [-1, 8, 1000]              48
         Conv1d-6241              [-1, 8, 1000]              48
         Conv1d-6242              [-1, 8, 1000]              48
         Conv1d-6243              [-1, 1, 1000]               9
       RCNNCell-6244  [[-1, 1, 1000], [-1, 1, 1000]]               0
         Conv1d-6245              [-1, 8, 1000]              48
         Conv1d-6246              [-1, 8, 1000]              48
         Conv1d-6247              [-1, 8, 1000]              48
         Conv1d-6248              [-1, 8, 1000]              48
         Conv1d-6249              [-1, 8, 1000]              48
         Conv1d-6250              [-1, 1, 1000]               9
       RCNNCell-6251  [[-1, 1, 1000], [-1, 1, 1000]]               0
         Conv1d-6252              [-1, 8, 1000]              48
         Conv1d-6253              [-1, 8, 1000]              48
         Conv1d-6254              [-1, 8, 1000]              48
         Conv1d-6255              [-1, 8, 1000]              48
         Conv1d-6256              [-1, 8, 1000]              48
         Conv1d-6257              [-1, 1, 1000]               9
       RCNNCell-6258  [[-1, 1, 1000], [-1, 1, 1000]]               0
         Conv1d-6259              [-1, 8, 1000]              48
         Conv1d-6260              [-1, 8, 1000]              48
         Conv1d-6261              [-1, 8, 1000]              48
         Conv1d-6262              [-1, 8, 1000]              48
         Conv1d-6263              [-1, 8, 1000]              48
         Conv1d-6264              [-1, 1, 1000]               9
       RCNNCell-6265  [[-1, 1, 1000], [-1, 1, 1000]]               0
         Conv1d-6266              [-1, 8, 1000]              48
         Conv1d-6267              [-1, 8, 1000]              48
         Conv1d-6268              [-1, 8, 1000]              48
         Conv1d-6269              [-1, 8, 1000]              48
         Conv1d-6270              [-1, 8, 1000]              48
         Conv1d-6271              [-1, 1, 1000]               9
       RCNNCell-6272  [[-1, 1, 1000], [-1, 1, 1000]]               0
         Conv1d-6273              [-1, 8, 1000]              48
         Conv1d-6274              [-1, 8, 1000]              48
         Conv1d-6275              [-1, 8, 1000]              48
         Conv1d-6276              [-1, 8, 1000]              48
         Conv1d-6277              [-1, 8, 1000]              48
         Conv1d-6278              [-1, 1, 1000]               9
       RCNNCell-6279  [[-1, 1, 1000], [-1, 1, 1000]]               0
         Conv1d-6280              [-1, 8, 1000]              48
         Conv1d-6281              [-1, 8, 1000]              48
         Conv1d-6282              [-1, 8, 1000]              48
         Conv1d-6283              [-1, 8, 1000]              48
         Conv1d-6284              [-1, 8, 1000]              48
         Conv1d-6285              [-1, 1, 1000]               9
       RCNNCell-6286  [[-1, 1, 1000], [-1, 1, 1000]]               0
         Conv1d-6287              [-1, 8, 1000]              48
         Conv1d-6288              [-1, 8, 1000]              48
         Conv1d-6289              [-1, 8, 1000]              48
         Conv1d-6290              [-1, 8, 1000]              48
         Conv1d-6291              [-1, 8, 1000]              48
         Conv1d-6292              [-1, 1, 1000]               9
       RCNNCell-6293  [[-1, 1, 1000], [-1, 1, 1000]]               0
         Conv1d-6294              [-1, 8, 1000]              48
         Conv1d-6295              [-1, 8, 1000]              48
         Conv1d-6296              [-1, 8, 1000]              48
         Conv1d-6297              [-1, 8, 1000]              48
         Conv1d-6298              [-1, 8, 1000]              48
         Conv1d-6299              [-1, 1, 1000]               9
       RCNNCell-6300  [[-1, 1, 1000], [-1, 1, 1000]]               0
         Conv1d-6301              [-1, 8, 1000]              48
         Conv1d-6302              [-1, 8, 1000]              48
         Conv1d-6303              [-1, 8, 1000]              48
         Conv1d-6304              [-1, 8, 1000]              48
         Conv1d-6305              [-1, 8, 1000]              48
         Conv1d-6306              [-1, 1, 1000]               9
       RCNNCell-6307  [[-1, 1, 1000], [-1, 1, 1000]]               0
         Conv1d-6308              [-1, 8, 1000]              48
         Conv1d-6309              [-1, 8, 1000]              48
         Conv1d-6310              [-1, 8, 1000]              48
         Conv1d-6311              [-1, 8, 1000]              48
         Conv1d-6312              [-1, 8, 1000]              48
         Conv1d-6313              [-1, 1, 1000]               9
       RCNNCell-6314  [[-1, 1, 1000], [-1, 1, 1000]]               0
         Conv1d-6315              [-1, 8, 1000]              48
         Conv1d-6316              [-1, 8, 1000]              48
         Conv1d-6317              [-1, 8, 1000]              48
         Conv1d-6318              [-1, 8, 1000]              48
         Conv1d-6319              [-1, 8, 1000]              48
         Conv1d-6320              [-1, 1, 1000]               9
       RCNNCell-6321  [[-1, 1, 1000], [-1, 1, 1000]]               0
         Conv1d-6322              [-1, 8, 1000]              48
         Conv1d-6323              [-1, 8, 1000]              48
         Conv1d-6324              [-1, 8, 1000]              48
         Conv1d-6325              [-1, 8, 1000]              48
         Conv1d-6326              [-1, 8, 1000]              48
         Conv1d-6327              [-1, 1, 1000]               9
       RCNNCell-6328  [[-1, 1, 1000], [-1, 1, 1000]]               0
         Conv1d-6329              [-1, 8, 1000]              48
         Conv1d-6330              [-1, 8, 1000]              48
         Conv1d-6331              [-1, 8, 1000]              48
         Conv1d-6332              [-1, 8, 1000]              48
         Conv1d-6333              [-1, 8, 1000]              48
         Conv1d-6334              [-1, 1, 1000]               9
       RCNNCell-6335  [[-1, 1, 1000], [-1, 1, 1000]]               0
         Conv1d-6336              [-1, 8, 1000]              48
         Conv1d-6337              [-1, 8, 1000]              48
         Conv1d-6338              [-1, 8, 1000]              48
         Conv1d-6339              [-1, 8, 1000]              48
         Conv1d-6340              [-1, 8, 1000]              48
         Conv1d-6341              [-1, 1, 1000]               9
       RCNNCell-6342  [[-1, 1, 1000], [-1, 1, 1000]]               0
         Conv1d-6343              [-1, 8, 1000]              48
         Conv1d-6344              [-1, 8, 1000]              48
         Conv1d-6345              [-1, 8, 1000]              48
         Conv1d-6346              [-1, 8, 1000]              48
         Conv1d-6347              [-1, 8, 1000]              48
         Conv1d-6348              [-1, 1, 1000]               9
       RCNNCell-6349  [[-1, 1, 1000], [-1, 1, 1000]]               0
         Conv1d-6350              [-1, 8, 1000]              48
         Conv1d-6351              [-1, 8, 1000]              48
         Conv1d-6352              [-1, 8, 1000]              48
         Conv1d-6353              [-1, 8, 1000]              48
         Conv1d-6354              [-1, 8, 1000]              48
         Conv1d-6355              [-1, 1, 1000]               9
       RCNNCell-6356  [[-1, 1, 1000], [-1, 1, 1000]]               0
         Conv1d-6357              [-1, 8, 1000]              48
         Conv1d-6358              [-1, 8, 1000]              48
         Conv1d-6359              [-1, 8, 1000]              48
         Conv1d-6360              [-1, 8, 1000]              48
         Conv1d-6361              [-1, 8, 1000]              48
         Conv1d-6362              [-1, 1, 1000]               9
       RCNNCell-6363  [[-1, 1, 1000], [-1, 1, 1000]]               0
         Conv1d-6364              [-1, 8, 1000]              48
         Conv1d-6365              [-1, 8, 1000]              48
         Conv1d-6366              [-1, 8, 1000]              48
         Conv1d-6367              [-1, 8, 1000]              48
         Conv1d-6368              [-1, 8, 1000]              48
         Conv1d-6369              [-1, 1, 1000]               9
       RCNNCell-6370  [[-1, 1, 1000], [-1, 1, 1000]]               0
         Conv1d-6371              [-1, 8, 1000]              48
         Conv1d-6372              [-1, 8, 1000]              48
         Conv1d-6373              [-1, 8, 1000]              48
         Conv1d-6374              [-1, 8, 1000]              48
         Conv1d-6375              [-1, 8, 1000]              48
         Conv1d-6376              [-1, 1, 1000]               9
       RCNNCell-6377  [[-1, 1, 1000], [-1, 1, 1000]]               0
         Conv1d-6378              [-1, 8, 1000]              48
         Conv1d-6379              [-1, 8, 1000]              48
         Conv1d-6380              [-1, 8, 1000]              48
         Conv1d-6381              [-1, 8, 1000]              48
         Conv1d-6382              [-1, 8, 1000]              48
         Conv1d-6383              [-1, 1, 1000]               9
       RCNNCell-6384  [[-1, 1, 1000], [-1, 1, 1000]]               0
         Conv1d-6385              [-1, 8, 1000]              48
         Conv1d-6386              [-1, 8, 1000]              48
         Conv1d-6387              [-1, 8, 1000]              48
         Conv1d-6388              [-1, 8, 1000]              48
         Conv1d-6389              [-1, 8, 1000]              48
         Conv1d-6390              [-1, 1, 1000]               9
       RCNNCell-6391  [[-1, 1, 1000], [-1, 1, 1000]]               0
         Conv1d-6392              [-1, 8, 1000]              48
         Conv1d-6393              [-1, 8, 1000]              48
         Conv1d-6394              [-1, 8, 1000]              48
         Conv1d-6395              [-1, 8, 1000]              48
         Conv1d-6396              [-1, 8, 1000]              48
         Conv1d-6397              [-1, 1, 1000]               9
       RCNNCell-6398  [[-1, 1, 1000], [-1, 1, 1000]]               0
         Conv1d-6399              [-1, 8, 1000]              48
         Conv1d-6400              [-1, 8, 1000]              48
         Conv1d-6401              [-1, 8, 1000]              48
         Conv1d-6402              [-1, 8, 1000]              48
         Conv1d-6403              [-1, 8, 1000]              48
         Conv1d-6404              [-1, 1, 1000]               9
       RCNNCell-6405  [[-1, 1, 1000], [-1, 1, 1000]]               0
         Conv1d-6406              [-1, 8, 1000]              48
         Conv1d-6407              [-1, 8, 1000]              48
         Conv1d-6408              [-1, 8, 1000]              48
         Conv1d-6409              [-1, 8, 1000]              48
         Conv1d-6410              [-1, 8, 1000]              48
         Conv1d-6411              [-1, 1, 1000]               9
       RCNNCell-6412  [[-1, 1, 1000], [-1, 1, 1000]]               0
         Conv1d-6413              [-1, 8, 1000]              48
         Conv1d-6414              [-1, 8, 1000]              48
         Conv1d-6415              [-1, 8, 1000]              48
         Conv1d-6416              [-1, 8, 1000]              48
         Conv1d-6417              [-1, 8, 1000]              48
         Conv1d-6418              [-1, 1, 1000]               9
       RCNNCell-6419  [[-1, 1, 1000], [-1, 1, 1000]]               0
         Conv1d-6420              [-1, 8, 1000]              48
         Conv1d-6421              [-1, 8, 1000]              48
         Conv1d-6422              [-1, 8, 1000]              48
         Conv1d-6423              [-1, 8, 1000]              48
         Conv1d-6424              [-1, 8, 1000]              48
         Conv1d-6425              [-1, 1, 1000]               9
       RCNNCell-6426  [[-1, 1, 1000], [-1, 1, 1000]]               0
         Conv1d-6427              [-1, 8, 1000]              48
         Conv1d-6428              [-1, 8, 1000]              48
         Conv1d-6429              [-1, 8, 1000]              48
         Conv1d-6430              [-1, 8, 1000]              48
         Conv1d-6431              [-1, 8, 1000]              48
         Conv1d-6432              [-1, 1, 1000]               9
       RCNNCell-6433  [[-1, 1, 1000], [-1, 1, 1000]]               0
         Conv1d-6434              [-1, 8, 1000]              48
         Conv1d-6435              [-1, 8, 1000]              48
         Conv1d-6436              [-1, 8, 1000]              48
         Conv1d-6437              [-1, 8, 1000]              48
         Conv1d-6438              [-1, 8, 1000]              48
         Conv1d-6439              [-1, 1, 1000]               9
       RCNNCell-6440  [[-1, 1, 1000], [-1, 1, 1000]]               0
         Conv1d-6441              [-1, 8, 1000]              48
         Conv1d-6442              [-1, 8, 1000]              48
         Conv1d-6443              [-1, 8, 1000]              48
         Conv1d-6444              [-1, 8, 1000]              48
         Conv1d-6445              [-1, 8, 1000]              48
         Conv1d-6446              [-1, 1, 1000]               9
       RCNNCell-6447  [[-1, 1, 1000], [-1, 1, 1000]]               0
         Conv1d-6448              [-1, 8, 1000]              48
         Conv1d-6449              [-1, 8, 1000]              48
         Conv1d-6450              [-1, 8, 1000]              48
         Conv1d-6451              [-1, 8, 1000]              48
         Conv1d-6452              [-1, 8, 1000]              48
         Conv1d-6453              [-1, 1, 1000]               9
       RCNNCell-6454  [[-1, 1, 1000], [-1, 1, 1000]]               0
         Conv1d-6455              [-1, 8, 1000]              48
         Conv1d-6456              [-1, 8, 1000]              48
         Conv1d-6457              [-1, 8, 1000]              48
         Conv1d-6458              [-1, 8, 1000]              48
         Conv1d-6459              [-1, 8, 1000]              48
         Conv1d-6460              [-1, 1, 1000]               9
       RCNNCell-6461  [[-1, 1, 1000], [-1, 1, 1000]]               0
         Conv1d-6462              [-1, 8, 1000]              48
         Conv1d-6463              [-1, 8, 1000]              48
         Conv1d-6464              [-1, 8, 1000]              48
         Conv1d-6465              [-1, 8, 1000]              48
         Conv1d-6466              [-1, 8, 1000]              48
         Conv1d-6467              [-1, 1, 1000]               9
       RCNNCell-6468  [[-1, 1, 1000], [-1, 1, 1000]]               0
         Conv1d-6469              [-1, 8, 1000]              48
         Conv1d-6470              [-1, 8, 1000]              48
         Conv1d-6471              [-1, 8, 1000]              48
         Conv1d-6472              [-1, 8, 1000]              48
         Conv1d-6473              [-1, 8, 1000]              48
         Conv1d-6474              [-1, 1, 1000]               9
       RCNNCell-6475  [[-1, 1, 1000], [-1, 1, 1000]]               0
         Conv1d-6476              [-1, 8, 1000]              48
         Conv1d-6477              [-1, 8, 1000]              48
         Conv1d-6478              [-1, 8, 1000]              48
         Conv1d-6479              [-1, 8, 1000]              48
         Conv1d-6480              [-1, 8, 1000]              48
         Conv1d-6481              [-1, 1, 1000]               9
       RCNNCell-6482  [[-1, 1, 1000], [-1, 1, 1000]]               0
         Conv1d-6483              [-1, 8, 1000]              48
         Conv1d-6484              [-1, 8, 1000]              48
         Conv1d-6485              [-1, 8, 1000]              48
         Conv1d-6486              [-1, 8, 1000]              48
         Conv1d-6487              [-1, 8, 1000]              48
         Conv1d-6488              [-1, 1, 1000]               9
       RCNNCell-6489  [[-1, 1, 1000], [-1, 1, 1000]]               0
         Conv1d-6490              [-1, 8, 1000]              48
         Conv1d-6491              [-1, 8, 1000]              48
         Conv1d-6492              [-1, 8, 1000]              48
         Conv1d-6493              [-1, 8, 1000]              48
         Conv1d-6494              [-1, 8, 1000]              48
         Conv1d-6495              [-1, 1, 1000]               9
       RCNNCell-6496  [[-1, 1, 1000], [-1, 1, 1000]]               0
         Conv1d-6497              [-1, 8, 1000]              48
         Conv1d-6498              [-1, 8, 1000]              48
         Conv1d-6499              [-1, 8, 1000]              48
         Conv1d-6500              [-1, 8, 1000]              48
         Conv1d-6501              [-1, 8, 1000]              48
         Conv1d-6502              [-1, 1, 1000]               9
       RCNNCell-6503  [[-1, 1, 1000], [-1, 1, 1000]]               0
         Conv1d-6504              [-1, 8, 1000]              48
         Conv1d-6505              [-1, 8, 1000]              48
         Conv1d-6506              [-1, 8, 1000]              48
         Conv1d-6507              [-1, 8, 1000]              48
         Conv1d-6508              [-1, 8, 1000]              48
         Conv1d-6509              [-1, 1, 1000]               9
       RCNNCell-6510  [[-1, 1, 1000], [-1, 1, 1000]]               0
         Conv1d-6511              [-1, 8, 1000]              48
         Conv1d-6512              [-1, 8, 1000]              48
         Conv1d-6513              [-1, 8, 1000]              48
         Conv1d-6514              [-1, 8, 1000]              48
         Conv1d-6515              [-1, 8, 1000]              48
         Conv1d-6516              [-1, 1, 1000]               9
       RCNNCell-6517  [[-1, 1, 1000], [-1, 1, 1000]]               0
         Conv1d-6518              [-1, 8, 1000]              48
         Conv1d-6519              [-1, 8, 1000]              48
         Conv1d-6520              [-1, 8, 1000]              48
         Conv1d-6521              [-1, 8, 1000]              48
         Conv1d-6522              [-1, 8, 1000]              48
         Conv1d-6523              [-1, 1, 1000]               9
       RCNNCell-6524  [[-1, 1, 1000], [-1, 1, 1000]]               0
         Conv1d-6525              [-1, 8, 1000]              48
         Conv1d-6526              [-1, 8, 1000]              48
         Conv1d-6527              [-1, 8, 1000]              48
         Conv1d-6528              [-1, 8, 1000]              48
         Conv1d-6529              [-1, 8, 1000]              48
         Conv1d-6530              [-1, 1, 1000]               9
       RCNNCell-6531  [[-1, 1, 1000], [-1, 1, 1000]]               0
         Conv1d-6532              [-1, 8, 1000]              48
         Conv1d-6533              [-1, 8, 1000]              48
         Conv1d-6534              [-1, 8, 1000]              48
         Conv1d-6535              [-1, 8, 1000]              48
         Conv1d-6536              [-1, 8, 1000]              48
         Conv1d-6537              [-1, 1, 1000]               9
       RCNNCell-6538  [[-1, 1, 1000], [-1, 1, 1000]]               0
         Conv1d-6539              [-1, 8, 1000]              48
         Conv1d-6540              [-1, 8, 1000]              48
         Conv1d-6541              [-1, 8, 1000]              48
         Conv1d-6542              [-1, 8, 1000]              48
         Conv1d-6543              [-1, 8, 1000]              48
         Conv1d-6544              [-1, 1, 1000]               9
       RCNNCell-6545  [[-1, 1, 1000], [-1, 1, 1000]]               0
         Conv1d-6546              [-1, 8, 1000]              48
         Conv1d-6547              [-1, 8, 1000]              48
         Conv1d-6548              [-1, 8, 1000]              48
         Conv1d-6549              [-1, 8, 1000]              48
         Conv1d-6550              [-1, 8, 1000]              48
         Conv1d-6551              [-1, 1, 1000]               9
       RCNNCell-6552  [[-1, 1, 1000], [-1, 1, 1000]]               0
         Conv1d-6553              [-1, 8, 1000]              48
         Conv1d-6554              [-1, 8, 1000]              48
         Conv1d-6555              [-1, 8, 1000]              48
         Conv1d-6556              [-1, 8, 1000]              48
         Conv1d-6557              [-1, 8, 1000]              48
         Conv1d-6558              [-1, 1, 1000]               9
       RCNNCell-6559  [[-1, 1, 1000], [-1, 1, 1000]]               0
         Conv1d-6560              [-1, 8, 1000]              48
         Conv1d-6561              [-1, 8, 1000]              48
         Conv1d-6562              [-1, 8, 1000]              48
         Conv1d-6563              [-1, 8, 1000]              48
         Conv1d-6564              [-1, 8, 1000]              48
         Conv1d-6565              [-1, 1, 1000]               9
       RCNNCell-6566  [[-1, 1, 1000], [-1, 1, 1000]]               0
         Conv1d-6567              [-1, 8, 1000]              48
         Conv1d-6568              [-1, 8, 1000]              48
         Conv1d-6569              [-1, 8, 1000]              48
         Conv1d-6570              [-1, 8, 1000]              48
         Conv1d-6571              [-1, 8, 1000]              48
         Conv1d-6572              [-1, 1, 1000]               9
       RCNNCell-6573  [[-1, 1, 1000], [-1, 1, 1000]]               0
         Conv1d-6574              [-1, 8, 1000]              48
         Conv1d-6575              [-1, 8, 1000]              48
         Conv1d-6576              [-1, 8, 1000]              48
         Conv1d-6577              [-1, 8, 1000]              48
         Conv1d-6578              [-1, 8, 1000]              48
         Conv1d-6579              [-1, 1, 1000]               9
       RCNNCell-6580  [[-1, 1, 1000], [-1, 1, 1000]]               0
         Conv1d-6581              [-1, 8, 1000]              48
         Conv1d-6582              [-1, 8, 1000]              48
         Conv1d-6583              [-1, 8, 1000]              48
         Conv1d-6584              [-1, 8, 1000]              48
         Conv1d-6585              [-1, 8, 1000]              48
         Conv1d-6586              [-1, 1, 1000]               9
       RCNNCell-6587  [[-1, 1, 1000], [-1, 1, 1000]]               0
         Conv1d-6588              [-1, 8, 1000]              48
         Conv1d-6589              [-1, 8, 1000]              48
         Conv1d-6590              [-1, 8, 1000]              48
         Conv1d-6591              [-1, 8, 1000]              48
         Conv1d-6592              [-1, 8, 1000]              48
         Conv1d-6593              [-1, 1, 1000]               9
       RCNNCell-6594  [[-1, 1, 1000], [-1, 1, 1000]]               0
         Conv1d-6595              [-1, 8, 1000]              48
         Conv1d-6596              [-1, 8, 1000]              48
         Conv1d-6597              [-1, 8, 1000]              48
         Conv1d-6598              [-1, 8, 1000]              48
         Conv1d-6599              [-1, 8, 1000]              48
         Conv1d-6600              [-1, 1, 1000]               9
       RCNNCell-6601  [[-1, 1, 1000], [-1, 1, 1000]]               0
         Conv1d-6602              [-1, 8, 1000]              48
         Conv1d-6603              [-1, 8, 1000]              48
         Conv1d-6604              [-1, 8, 1000]              48
         Conv1d-6605              [-1, 8, 1000]              48
         Conv1d-6606              [-1, 8, 1000]              48
         Conv1d-6607              [-1, 1, 1000]               9
       RCNNCell-6608  [[-1, 1, 1000], [-1, 1, 1000]]               0
         Conv1d-6609              [-1, 8, 1000]              48
         Conv1d-6610              [-1, 8, 1000]              48
         Conv1d-6611              [-1, 8, 1000]              48
         Conv1d-6612              [-1, 8, 1000]              48
         Conv1d-6613              [-1, 8, 1000]              48
         Conv1d-6614              [-1, 1, 1000]               9
       RCNNCell-6615  [[-1, 1, 1000], [-1, 1, 1000]]               0
         Conv1d-6616              [-1, 8, 1000]              48
         Conv1d-6617              [-1, 8, 1000]              48
         Conv1d-6618              [-1, 8, 1000]              48
         Conv1d-6619              [-1, 8, 1000]              48
         Conv1d-6620              [-1, 8, 1000]              48
         Conv1d-6621              [-1, 1, 1000]               9
       RCNNCell-6622  [[-1, 1, 1000], [-1, 1, 1000]]               0
         Conv1d-6623              [-1, 8, 1000]              48
         Conv1d-6624              [-1, 8, 1000]              48
         Conv1d-6625              [-1, 8, 1000]              48
         Conv1d-6626              [-1, 8, 1000]              48
         Conv1d-6627              [-1, 8, 1000]              48
         Conv1d-6628              [-1, 1, 1000]               9
       RCNNCell-6629  [[-1, 1, 1000], [-1, 1, 1000]]               0
         Conv1d-6630              [-1, 8, 1000]              48
         Conv1d-6631              [-1, 8, 1000]              48
         Conv1d-6632              [-1, 8, 1000]              48
         Conv1d-6633              [-1, 8, 1000]              48
         Conv1d-6634              [-1, 8, 1000]              48
         Conv1d-6635              [-1, 1, 1000]               9
       RCNNCell-6636  [[-1, 1, 1000], [-1, 1, 1000]]               0
         Conv1d-6637              [-1, 8, 1000]              48
         Conv1d-6638              [-1, 8, 1000]              48
         Conv1d-6639              [-1, 8, 1000]              48
         Conv1d-6640              [-1, 8, 1000]              48
         Conv1d-6641              [-1, 8, 1000]              48
         Conv1d-6642              [-1, 1, 1000]               9
       RCNNCell-6643  [[-1, 1, 1000], [-1, 1, 1000]]               0
         Conv1d-6644              [-1, 8, 1000]              48
         Conv1d-6645              [-1, 8, 1000]              48
         Conv1d-6646              [-1, 8, 1000]              48
         Conv1d-6647              [-1, 8, 1000]              48
         Conv1d-6648              [-1, 8, 1000]              48
         Conv1d-6649              [-1, 1, 1000]               9
       RCNNCell-6650  [[-1, 1, 1000], [-1, 1, 1000]]               0
         Conv1d-6651              [-1, 8, 1000]              48
         Conv1d-6652              [-1, 8, 1000]              48
         Conv1d-6653              [-1, 8, 1000]              48
         Conv1d-6654              [-1, 8, 1000]              48
         Conv1d-6655              [-1, 8, 1000]              48
         Conv1d-6656              [-1, 1, 1000]               9
       RCNNCell-6657  [[-1, 1, 1000], [-1, 1, 1000]]               0
         Conv1d-6658              [-1, 8, 1000]              48
         Conv1d-6659              [-1, 8, 1000]              48
         Conv1d-6660              [-1, 8, 1000]              48
         Conv1d-6661              [-1, 8, 1000]              48
         Conv1d-6662              [-1, 8, 1000]              48
         Conv1d-6663              [-1, 1, 1000]               9
       RCNNCell-6664  [[-1, 1, 1000], [-1, 1, 1000]]               0
         Conv1d-6665              [-1, 8, 1000]              48
         Conv1d-6666              [-1, 8, 1000]              48
         Conv1d-6667              [-1, 8, 1000]              48
         Conv1d-6668              [-1, 8, 1000]              48
         Conv1d-6669              [-1, 8, 1000]              48
         Conv1d-6670              [-1, 1, 1000]               9
       RCNNCell-6671  [[-1, 1, 1000], [-1, 1, 1000]]               0
         Conv1d-6672              [-1, 8, 1000]              48
         Conv1d-6673              [-1, 8, 1000]              48
         Conv1d-6674              [-1, 8, 1000]              48
         Conv1d-6675              [-1, 8, 1000]              48
         Conv1d-6676              [-1, 8, 1000]              48
         Conv1d-6677              [-1, 1, 1000]               9
       RCNNCell-6678  [[-1, 1, 1000], [-1, 1, 1000]]               0
         Conv1d-6679              [-1, 8, 1000]              48
         Conv1d-6680              [-1, 8, 1000]              48
         Conv1d-6681              [-1, 8, 1000]              48
         Conv1d-6682              [-1, 8, 1000]              48
         Conv1d-6683              [-1, 8, 1000]              48
         Conv1d-6684              [-1, 1, 1000]               9
       RCNNCell-6685  [[-1, 1, 1000], [-1, 1, 1000]]               0
         Conv1d-6686              [-1, 8, 1000]              48
         Conv1d-6687              [-1, 8, 1000]              48
         Conv1d-6688              [-1, 8, 1000]              48
         Conv1d-6689              [-1, 8, 1000]              48
         Conv1d-6690              [-1, 8, 1000]              48
         Conv1d-6691              [-1, 1, 1000]               9
       RCNNCell-6692  [[-1, 1, 1000], [-1, 1, 1000]]               0
         Conv1d-6693              [-1, 8, 1000]              48
         Conv1d-6694              [-1, 8, 1000]              48
         Conv1d-6695              [-1, 8, 1000]              48
         Conv1d-6696              [-1, 8, 1000]              48
         Conv1d-6697              [-1, 8, 1000]              48
         Conv1d-6698              [-1, 1, 1000]               9
       RCNNCell-6699  [[-1, 1, 1000], [-1, 1, 1000]]               0
         Conv1d-6700              [-1, 8, 1000]              48
         Conv1d-6701              [-1, 8, 1000]              48
         Conv1d-6702              [-1, 8, 1000]              48
         Conv1d-6703              [-1, 8, 1000]              48
         Conv1d-6704              [-1, 8, 1000]              48
         Conv1d-6705              [-1, 1, 1000]               9
       RCNNCell-6706  [[-1, 1, 1000], [-1, 1, 1000]]               0
         Conv1d-6707              [-1, 8, 1000]              48
         Conv1d-6708              [-1, 8, 1000]              48
         Conv1d-6709              [-1, 8, 1000]              48
         Conv1d-6710              [-1, 8, 1000]              48
         Conv1d-6711              [-1, 8, 1000]              48
         Conv1d-6712              [-1, 1, 1000]               9
       RCNNCell-6713  [[-1, 1, 1000], [-1, 1, 1000]]               0
         Conv1d-6714              [-1, 8, 1000]              48
         Conv1d-6715              [-1, 8, 1000]              48
         Conv1d-6716              [-1, 8, 1000]              48
         Conv1d-6717              [-1, 8, 1000]              48
         Conv1d-6718              [-1, 8, 1000]              48
         Conv1d-6719              [-1, 1, 1000]               9
       RCNNCell-6720  [[-1, 1, 1000], [-1, 1, 1000]]               0
         Conv1d-6721              [-1, 8, 1000]              48
         Conv1d-6722              [-1, 8, 1000]              48
         Conv1d-6723              [-1, 8, 1000]              48
         Conv1d-6724              [-1, 8, 1000]              48
         Conv1d-6725              [-1, 8, 1000]              48
         Conv1d-6726              [-1, 1, 1000]               9
       RCNNCell-6727  [[-1, 1, 1000], [-1, 1, 1000]]               0
         Conv1d-6728              [-1, 8, 1000]              48
         Conv1d-6729              [-1, 8, 1000]              48
         Conv1d-6730              [-1, 8, 1000]              48
         Conv1d-6731              [-1, 8, 1000]              48
         Conv1d-6732              [-1, 8, 1000]              48
         Conv1d-6733              [-1, 1, 1000]               9
       RCNNCell-6734  [[-1, 1, 1000], [-1, 1, 1000]]               0
         Conv1d-6735              [-1, 8, 1000]              48
         Conv1d-6736              [-1, 8, 1000]              48
         Conv1d-6737              [-1, 8, 1000]              48
         Conv1d-6738              [-1, 8, 1000]              48
         Conv1d-6739              [-1, 8, 1000]              48
         Conv1d-6740              [-1, 1, 1000]               9
       RCNNCell-6741  [[-1, 1, 1000], [-1, 1, 1000]]               0
         Conv1d-6742              [-1, 8, 1000]              48
         Conv1d-6743              [-1, 8, 1000]              48
         Conv1d-6744              [-1, 8, 1000]              48
         Conv1d-6745              [-1, 8, 1000]              48
         Conv1d-6746              [-1, 8, 1000]              48
         Conv1d-6747              [-1, 1, 1000]               9
       RCNNCell-6748  [[-1, 1, 1000], [-1, 1, 1000]]               0
         Conv1d-6749              [-1, 8, 1000]              48
         Conv1d-6750              [-1, 8, 1000]              48
         Conv1d-6751              [-1, 8, 1000]              48
         Conv1d-6752              [-1, 8, 1000]              48
         Conv1d-6753              [-1, 8, 1000]              48
         Conv1d-6754              [-1, 1, 1000]               9
       RCNNCell-6755  [[-1, 1, 1000], [-1, 1, 1000]]               0
         Conv1d-6756              [-1, 8, 1000]              48
         Conv1d-6757              [-1, 8, 1000]              48
         Conv1d-6758              [-1, 8, 1000]              48
         Conv1d-6759              [-1, 8, 1000]              48
         Conv1d-6760              [-1, 8, 1000]              48
         Conv1d-6761              [-1, 1, 1000]               9
       RCNNCell-6762  [[-1, 1, 1000], [-1, 1, 1000]]               0
         Conv1d-6763              [-1, 8, 1000]              48
         Conv1d-6764              [-1, 8, 1000]              48
         Conv1d-6765              [-1, 8, 1000]              48
         Conv1d-6766              [-1, 8, 1000]              48
         Conv1d-6767              [-1, 8, 1000]              48
         Conv1d-6768              [-1, 1, 1000]               9
       RCNNCell-6769  [[-1, 1, 1000], [-1, 1, 1000]]               0
         Conv1d-6770              [-1, 8, 1000]              48
         Conv1d-6771              [-1, 8, 1000]              48
         Conv1d-6772              [-1, 8, 1000]              48
         Conv1d-6773              [-1, 8, 1000]              48
         Conv1d-6774              [-1, 8, 1000]              48
         Conv1d-6775              [-1, 1, 1000]               9
       RCNNCell-6776  [[-1, 1, 1000], [-1, 1, 1000]]               0
         Conv1d-6777              [-1, 8, 1000]              48
         Conv1d-6778              [-1, 8, 1000]              48
         Conv1d-6779              [-1, 8, 1000]              48
         Conv1d-6780              [-1, 8, 1000]              48
         Conv1d-6781              [-1, 8, 1000]              48
         Conv1d-6782              [-1, 1, 1000]               9
       RCNNCell-6783  [[-1, 1, 1000], [-1, 1, 1000]]               0
         Conv1d-6784              [-1, 8, 1000]              48
         Conv1d-6785              [-1, 8, 1000]              48
         Conv1d-6786              [-1, 8, 1000]              48
         Conv1d-6787              [-1, 8, 1000]              48
         Conv1d-6788              [-1, 8, 1000]              48
         Conv1d-6789              [-1, 1, 1000]               9
       RCNNCell-6790  [[-1, 1, 1000], [-1, 1, 1000]]               0
         Conv1d-6791              [-1, 8, 1000]              48
         Conv1d-6792              [-1, 8, 1000]              48
         Conv1d-6793              [-1, 8, 1000]              48
         Conv1d-6794              [-1, 8, 1000]              48
         Conv1d-6795              [-1, 8, 1000]              48
         Conv1d-6796              [-1, 1, 1000]               9
       RCNNCell-6797  [[-1, 1, 1000], [-1, 1, 1000]]               0
         Conv1d-6798              [-1, 8, 1000]              48
         Conv1d-6799              [-1, 8, 1000]              48
         Conv1d-6800              [-1, 8, 1000]              48
         Conv1d-6801              [-1, 8, 1000]              48
         Conv1d-6802              [-1, 8, 1000]              48
         Conv1d-6803              [-1, 1, 1000]               9
       RCNNCell-6804  [[-1, 1, 1000], [-1, 1, 1000]]               0
         Conv1d-6805              [-1, 8, 1000]              48
         Conv1d-6806              [-1, 8, 1000]              48
         Conv1d-6807              [-1, 8, 1000]              48
         Conv1d-6808              [-1, 8, 1000]              48
         Conv1d-6809              [-1, 8, 1000]              48
         Conv1d-6810              [-1, 1, 1000]               9
       RCNNCell-6811  [[-1, 1, 1000], [-1, 1, 1000]]               0
         Conv1d-6812              [-1, 8, 1000]              48
         Conv1d-6813              [-1, 8, 1000]              48
         Conv1d-6814              [-1, 8, 1000]              48
         Conv1d-6815              [-1, 8, 1000]              48
         Conv1d-6816              [-1, 8, 1000]              48
         Conv1d-6817              [-1, 1, 1000]               9
       RCNNCell-6818  [[-1, 1, 1000], [-1, 1, 1000]]               0
         Conv1d-6819              [-1, 8, 1000]              48
         Conv1d-6820              [-1, 8, 1000]              48
         Conv1d-6821              [-1, 8, 1000]              48
         Conv1d-6822              [-1, 8, 1000]              48
         Conv1d-6823              [-1, 8, 1000]              48
         Conv1d-6824              [-1, 1, 1000]               9
       RCNNCell-6825  [[-1, 1, 1000], [-1, 1, 1000]]               0
         Conv1d-6826              [-1, 8, 1000]              48
         Conv1d-6827              [-1, 8, 1000]              48
         Conv1d-6828              [-1, 8, 1000]              48
         Conv1d-6829              [-1, 8, 1000]              48
         Conv1d-6830              [-1, 8, 1000]              48
         Conv1d-6831              [-1, 1, 1000]               9
       RCNNCell-6832  [[-1, 1, 1000], [-1, 1, 1000]]               0
         Conv1d-6833              [-1, 8, 1000]              48
         Conv1d-6834              [-1, 8, 1000]              48
         Conv1d-6835              [-1, 8, 1000]              48
         Conv1d-6836              [-1, 8, 1000]              48
         Conv1d-6837              [-1, 8, 1000]              48
         Conv1d-6838              [-1, 1, 1000]               9
       RCNNCell-6839  [[-1, 1, 1000], [-1, 1, 1000]]               0
         Conv1d-6840              [-1, 8, 1000]              48
         Conv1d-6841              [-1, 8, 1000]              48
         Conv1d-6842              [-1, 8, 1000]              48
         Conv1d-6843              [-1, 8, 1000]              48
         Conv1d-6844              [-1, 8, 1000]              48
         Conv1d-6845              [-1, 1, 1000]               9
       RCNNCell-6846  [[-1, 1, 1000], [-1, 1, 1000]]               0
         Conv1d-6847              [-1, 8, 1000]              48
         Conv1d-6848              [-1, 8, 1000]              48
         Conv1d-6849              [-1, 8, 1000]              48
         Conv1d-6850              [-1, 8, 1000]              48
         Conv1d-6851              [-1, 8, 1000]              48
         Conv1d-6852              [-1, 1, 1000]               9
       RCNNCell-6853  [[-1, 1, 1000], [-1, 1, 1000]]               0
         Conv1d-6854              [-1, 8, 1000]              48
         Conv1d-6855              [-1, 8, 1000]              48
         Conv1d-6856              [-1, 8, 1000]              48
         Conv1d-6857              [-1, 8, 1000]              48
         Conv1d-6858              [-1, 8, 1000]              48
         Conv1d-6859              [-1, 1, 1000]               9
       RCNNCell-6860  [[-1, 1, 1000], [-1, 1, 1000]]               0
         Conv1d-6861              [-1, 8, 1000]              48
         Conv1d-6862              [-1, 8, 1000]              48
         Conv1d-6863              [-1, 8, 1000]              48
         Conv1d-6864              [-1, 8, 1000]              48
         Conv1d-6865              [-1, 8, 1000]              48
         Conv1d-6866              [-1, 1, 1000]               9
       RCNNCell-6867  [[-1, 1, 1000], [-1, 1, 1000]]               0
         Conv1d-6868              [-1, 8, 1000]              48
         Conv1d-6869              [-1, 8, 1000]              48
         Conv1d-6870              [-1, 8, 1000]              48
         Conv1d-6871              [-1, 8, 1000]              48
         Conv1d-6872              [-1, 8, 1000]              48
         Conv1d-6873              [-1, 1, 1000]               9
       RCNNCell-6874  [[-1, 1, 1000], [-1, 1, 1000]]               0
         Conv1d-6875              [-1, 8, 1000]              48
         Conv1d-6876              [-1, 8, 1000]              48
         Conv1d-6877              [-1, 8, 1000]              48
         Conv1d-6878              [-1, 8, 1000]              48
         Conv1d-6879              [-1, 8, 1000]              48
         Conv1d-6880              [-1, 1, 1000]               9
       RCNNCell-6881  [[-1, 1, 1000], [-1, 1, 1000]]               0
         Conv1d-6882              [-1, 8, 1000]              48
         Conv1d-6883              [-1, 8, 1000]              48
         Conv1d-6884              [-1, 8, 1000]              48
         Conv1d-6885              [-1, 8, 1000]              48
         Conv1d-6886              [-1, 8, 1000]              48
         Conv1d-6887              [-1, 1, 1000]               9
       RCNNCell-6888  [[-1, 1, 1000], [-1, 1, 1000]]               0
         Conv1d-6889              [-1, 8, 1000]              48
         Conv1d-6890              [-1, 8, 1000]              48
         Conv1d-6891              [-1, 8, 1000]              48
         Conv1d-6892              [-1, 8, 1000]              48
         Conv1d-6893              [-1, 8, 1000]              48
         Conv1d-6894              [-1, 1, 1000]               9
       RCNNCell-6895  [[-1, 1, 1000], [-1, 1, 1000]]               0
         Conv1d-6896              [-1, 8, 1000]              48
         Conv1d-6897              [-1, 8, 1000]              48
         Conv1d-6898              [-1, 8, 1000]              48
         Conv1d-6899              [-1, 8, 1000]              48
         Conv1d-6900              [-1, 8, 1000]              48
         Conv1d-6901              [-1, 1, 1000]               9
       RCNNCell-6902  [[-1, 1, 1000], [-1, 1, 1000]]               0
         Conv1d-6903              [-1, 8, 1000]              48
         Conv1d-6904              [-1, 8, 1000]              48
         Conv1d-6905              [-1, 8, 1000]              48
         Conv1d-6906              [-1, 8, 1000]              48
         Conv1d-6907              [-1, 8, 1000]              48
         Conv1d-6908              [-1, 1, 1000]               9
       RCNNCell-6909  [[-1, 1, 1000], [-1, 1, 1000]]               0
         Conv1d-6910              [-1, 8, 1000]              48
         Conv1d-6911              [-1, 8, 1000]              48
         Conv1d-6912              [-1, 8, 1000]              48
         Conv1d-6913              [-1, 8, 1000]              48
         Conv1d-6914              [-1, 8, 1000]              48
         Conv1d-6915              [-1, 1, 1000]               9
       RCNNCell-6916  [[-1, 1, 1000], [-1, 1, 1000]]               0
         Conv1d-6917              [-1, 8, 1000]              48
         Conv1d-6918              [-1, 8, 1000]              48
         Conv1d-6919              [-1, 8, 1000]              48
         Conv1d-6920              [-1, 8, 1000]              48
         Conv1d-6921              [-1, 8, 1000]              48
         Conv1d-6922              [-1, 1, 1000]               9
       RCNNCell-6923  [[-1, 1, 1000], [-1, 1, 1000]]               0
         Conv1d-6924              [-1, 8, 1000]              48
         Conv1d-6925              [-1, 8, 1000]              48
         Conv1d-6926              [-1, 8, 1000]              48
         Conv1d-6927              [-1, 8, 1000]              48
         Conv1d-6928              [-1, 8, 1000]              48
         Conv1d-6929              [-1, 1, 1000]               9
       RCNNCell-6930  [[-1, 1, 1000], [-1, 1, 1000]]               0
         Conv1d-6931              [-1, 8, 1000]              48
         Conv1d-6932              [-1, 8, 1000]              48
         Conv1d-6933              [-1, 8, 1000]              48
         Conv1d-6934              [-1, 8, 1000]              48
         Conv1d-6935              [-1, 8, 1000]              48
         Conv1d-6936              [-1, 1, 1000]               9
       RCNNCell-6937  [[-1, 1, 1000], [-1, 1, 1000]]               0
         Conv1d-6938              [-1, 8, 1000]              48
         Conv1d-6939              [-1, 8, 1000]              48
         Conv1d-6940              [-1, 8, 1000]              48
         Conv1d-6941              [-1, 8, 1000]              48
         Conv1d-6942              [-1, 8, 1000]              48
         Conv1d-6943              [-1, 1, 1000]               9
       RCNNCell-6944  [[-1, 1, 1000], [-1, 1, 1000]]               0
         Conv1d-6945              [-1, 8, 1000]              48
         Conv1d-6946              [-1, 8, 1000]              48
         Conv1d-6947              [-1, 8, 1000]              48
         Conv1d-6948              [-1, 8, 1000]              48
         Conv1d-6949              [-1, 8, 1000]              48
         Conv1d-6950              [-1, 1, 1000]               9
       RCNNCell-6951  [[-1, 1, 1000], [-1, 1, 1000]]               0
         Conv1d-6952              [-1, 8, 1000]              48
         Conv1d-6953              [-1, 8, 1000]              48
         Conv1d-6954              [-1, 8, 1000]              48
         Conv1d-6955              [-1, 8, 1000]              48
         Conv1d-6956              [-1, 8, 1000]              48
         Conv1d-6957              [-1, 1, 1000]               9
       RCNNCell-6958  [[-1, 1, 1000], [-1, 1, 1000]]               0
         Conv1d-6959              [-1, 8, 1000]              48
         Conv1d-6960              [-1, 8, 1000]              48
         Conv1d-6961              [-1, 8, 1000]              48
         Conv1d-6962              [-1, 8, 1000]              48
         Conv1d-6963              [-1, 8, 1000]              48
         Conv1d-6964              [-1, 1, 1000]               9
       RCNNCell-6965  [[-1, 1, 1000], [-1, 1, 1000]]               0
         Conv1d-6966              [-1, 8, 1000]              48
         Conv1d-6967              [-1, 8, 1000]              48
         Conv1d-6968              [-1, 8, 1000]              48
         Conv1d-6969              [-1, 8, 1000]              48
         Conv1d-6970              [-1, 8, 1000]              48
         Conv1d-6971              [-1, 1, 1000]               9
       RCNNCell-6972  [[-1, 1, 1000], [-1, 1, 1000]]               0
         Conv1d-6973              [-1, 8, 1000]              48
         Conv1d-6974              [-1, 8, 1000]              48
         Conv1d-6975              [-1, 8, 1000]              48
         Conv1d-6976              [-1, 8, 1000]              48
         Conv1d-6977              [-1, 8, 1000]              48
         Conv1d-6978              [-1, 1, 1000]               9
       RCNNCell-6979  [[-1, 1, 1000], [-1, 1, 1000]]               0
         Conv1d-6980              [-1, 8, 1000]              48
         Conv1d-6981              [-1, 8, 1000]              48
         Conv1d-6982              [-1, 8, 1000]              48
         Conv1d-6983              [-1, 8, 1000]              48
         Conv1d-6984              [-1, 8, 1000]              48
         Conv1d-6985              [-1, 1, 1000]               9
       RCNNCell-6986  [[-1, 1, 1000], [-1, 1, 1000]]               0
         Conv1d-6987              [-1, 8, 1000]              48
         Conv1d-6988              [-1, 8, 1000]              48
         Conv1d-6989              [-1, 8, 1000]              48
         Conv1d-6990              [-1, 8, 1000]              48
         Conv1d-6991              [-1, 8, 1000]              48
         Conv1d-6992              [-1, 1, 1000]               9
       RCNNCell-6993  [[-1, 1, 1000], [-1, 1, 1000]]               0
         Conv1d-6994              [-1, 8, 1000]              48
         Conv1d-6995              [-1, 8, 1000]              48
         Conv1d-6996              [-1, 8, 1000]              48
         Conv1d-6997              [-1, 8, 1000]              48
         Conv1d-6998              [-1, 8, 1000]              48
         Conv1d-6999              [-1, 1, 1000]               9
       RCNNCell-7000  [[-1, 1, 1000], [-1, 1, 1000]]               0
================================================================
Total params: 249,000
Trainable params: 249,000
Non-trainable params: 0
----------------------------------------------------------------
Input size (MB): 7.63
Forward/backward pass size (MB): 7316.59
Params size (MB): 0.95
Estimated Total Size (MB): 7325.17
----------------------------------------------------------------
